backend/clean_real_data_pytorch_weights.pth (torch, 80726 bytes, 20 tensors)

input_layer.weight f4 [128, 51]
0.027268432 0.1421186 0.088788465 -5.0417e-41 0.03264026 -4.9385e-41 0.033647895 -0.16607846
0.0034112448 0.051626403 0.017823597 0.14981256 0.13133009 -0.08631921 0.16542855 -0.13418905
-0.09710765 0.056278568 -0.0022011301 0.13916413 0.08646032 -0.03847244 0.113047056 -0.12608135
0.09977103 0.040526368 0.17459331 0.20118447 0.011634039 -0.049407523 0.16951238 0.11050383
0.0075219558 0.13879701 0.05181732 0.006441243 0.00300504 -0.022366747 -0.06420358 0.023655241
0.02534476 -0.10435687 -0.06372071 0.044337064 -0.02288262 0.018466031 0.15540373 0.10741432
0.084188424 0.03828532 0.10904608 -0.12545432 0.17980918 -0.119183525 5.0143e-41 -0.059385344
-4.9691e-41 0.110300586 0.02733467 0.12204977 -0.21451543 -0.16729726 -0.0019839644 -0.04300531
0.09123715 -0.05757468 0.12046977 -0.16986175 0.016474664 0.05590326 -0.088659555 0.11211875
0.063618965 -0.10157352 -0.09199784 0.16141997 -0.053491753 0.08848554 0.110132925 0.082321726
-0.06328745 0.1852523 0.022072533 0.023975765 -0.071938105 0.08044169 -0.024971958 0.13392736
0.04191818 0.081036724 0.011456606 0.16107106 0.1706332 0.025503006 -0.0077104582 -0.0077940677
-0.07399382 0.12366251 -0.07435792 -0.007555475 0.011279776 -0.10736014 -0.123125695 0.017741641
0.07605403 4.9584e-41 0.021720706 -4.9848e-41 0.07168985 0.09930973 0.035435993 0.17072709
-0.088602684 -0.056977462 0.046869304 0.046975505 -0.034456737 -0.11075652 -0.036368206 0.08386523
0.07471248 -0.06473851 0.14402631 -0.118214294 0.031520434 0.05579119 -0.05468432 0.120253295
-0.07319331 0.18369024 0.058585476 -0.06510257 0.16021279 -0.009811323 -0.00046694226 0.122584656
-0.1678583 0.10791684 -0.11210428 -0.040459175 0.1453814 -0.03488658 -0.11386389 -0.035549592
0.04407853 0.061847694 -0.003983182 0.08342186 0.005618411 -0.13263144 0.027573245 0.08688487
-0.011971667 -0.010947845 0.16319634 -0.15181097 4.9333e-41 0.18051486 -4.9561e-41 0.06437722
-0.014385182 0.03841806 -0.13607232 -0.09958893 -0.07000956 -0.04816353 -0.09053222 -0.12951049
-0.11831841 -0.099830896 0.08655907 0.1731209 -0.08276366 -0.10840071 -0.049277294 -0.06014697
-0.17042424 0.13832201 0.11907989 0.110185646 -0.06783359 -0.02459281 0.1757128 -0.14890301
-0.093883134 -0.16846094 0.02928636 -0.0032020384 -0.077877775 0.18123545 -0.055018295 -0.013331626
0.115990125 0.048731867 0.09887052 -0.05129785 0.08765226 -0.070787415 0.040771283 -0.1429978
0.100686595 0.009040246 0.048111394 -0.010303118 0.04372545 -0.0978808 0.06979777 4.9617e-41
0.09238563 -4.9125e-41 -0.12711845 -0.15061928 -0.07156338 -0.10704627 0.10041319 -0.075421624
0.1243615 -0.105423644 -0.03919257 -0.11904534 0.036926012 0.02738545 0.06862318 0.21152103
0.08430176 -0.16526417 0.04088218 0.121556856 0.14549732 -0.0073675443 -0.033316176 -0.14123149
0.11665011 -0.0043473165 0.025073268 -0.08542534 -0.05589071 0.047327925 0.15017618 -0.044759415
0.06378259 0.07474801 -0.015079783 0.046541255 0.15390179 0.28042802 0.045532476 0.10614708
0.04922357 0.064442895 -0.0903836 0.16739771 0.11006971 0.008913438 0.0018831573 0.02408883
00000000: 0c62 df3c 8a87 113e bad6 b53d 8b8c 0080
00000010: cbb1 053d aa89 0080 60d2 093d 7910 2abe
00000020: 318f 5f3b 3576 533d cb02 923c 7768 193e
00000030: 657b 063e 20c8 b0bd 1a66 293e db68 09be
00000040: 60e0 c6bd 5b84 663d d640 10bb 0b81 0e3e
00000050: 1c12 b13d 4795 1dbd 3785 e73d 781b 01be
00000060: c154 cc3d fafe 253d 97c8 323e 4d03 4e3e
00000070: b29c 3e3c 8b5f 4abd a794 2d3e d54f e23d
00000080: bd7a f63b ce20 0e3e 663e 543d 1011 d33b
00000090: 35f0 443b 783a b7bc 2b7d 83bd a3c8 c13c
000000a0: d09f cf3c 0eb9 d5bd 0180 82bd c89a 353d
000000b0: 5574 bbbc 1346 973c 2822 1f3e 0afc db3d
000000c0: fb6a ac3d 11d1 1c3d 8d53 df3d 1977 00be
000000d0: e61f 383e 7e16 f4bd c78b 0000 0c3e 73bd
000000e0: 858a 0080 46e5 e13d f5ec df3c 3bf5 f93d
000000f0: efa9 5bbe f94f 2bbe 6605 02bb 5626 30bd
00000100: 8bda ba3d 6dd3 6bbd dbb8 f63d 3df0 2dbe
00000110: e0f5 863c d1fa 643d 2493 b5bd 849e e53d
00000120: a94a 823d c705 d0bd 5d69 bcbd 474b 253e
00000130: 2b1a 5bbd e837 b53d 5f8d e13d 4b98 a83d
00000140: da9c 81bd c7b2 3d3e 75d1 b43c d368 c43c
00000150: 4954 93bd 9dbe a43d fe91 ccbc 4124 093e
00000160: 66b2 2b3d 95f6 a53d 7db4 3b3c d0ef 243e
00000170: 78ba 2e3e aeeb d03c 03a8 fcbb 6165 ffbb
00000180: 128a 97bd c542 fd3d f748 98bd eb93 f7bb
00000190: cfce 383c a2df dbbd 5329 fcbd eb56 913c
000001a0: 37c2 9b3d 388a 0000 9fef b13c f58a 0080
000001b0: 21d2 923d e662 cb3d 5525 113d 15d3 2e3e
000001c0: 5375 b5bd 3361 69bd 07fa 3f3d 6369 403d
000001d0: 8222 0dbd 50d4 e2bd d4f6 14bd 89c1 ab3d
000001e0: db02 993d a095 84bd a27b 133e 561a f2bd
000001f0: 921b 013d 4e85 643d aafc 5fbd 5c47 f63d
00000200: 60e6 95bd 4b19 3c3e 53f7 6f3d 7f54 85bd
00000210: d20e 243e acbf 20bc eecf f4b9 aa0d fb3d
00000220: 0ce3 2bbe 8103 dd3d ee96 e5bd 85b8 25bd
00000230: ddde 143e 3be5 0ebd 7931 e9bd 739c 11bd
00000240: b08b 343d 0254 7d3d 5a85 82bb 15d9 aa3d
00000250: a61a b83b 89d0 07be 49e1 e13c b2f0 b13d
00000260: d024 44bc 975e 33bc f11c 273e 5674 1bbe
00000270: 8589 0000 e3d8 383e 288a 0080 34d8 833d
00000280: d4af 6bbc 415c 1d3d 8b56 0bbe 48f5 cbbd
00000290: 2c61 8fbd 1f47 45bd f568 b9bd 669e 04be
000002a0: ec50 f2bd 2474 ccbd e245 b13d 9b46 313e
000002b0: fe7f a9bd 3101 debd fdd6 49bd ab5c 76bd
000002c0: b183 2ebe 49a4 0d3e 28e0 f33d 03a9 e13d
000002d0: 56ec 8abd dc76 c9bc 0eee 333e 087a 18be
000002e0: cd45 c0bd 0681 2cbe f3e9 ef3c 4ad9 51bb
000002f0: 627e 9fbd c995 393e dd5a 61bd e46c 5abc
00000300: 3b8c ed3d 119b 473d a17c ca3d b21d 52bd
00000310: 0783 b33d fef8 90bd caff 263d 046e 12be
00000320: c634 ce3d 8a1d 143c 7410 453d 69ce 28bc
00000330: 7519 333d bb75 c8bd 22f2 8e3d 508a 0000
00000340: ad34 bd3d f188 0080 572b 02be f13b 1abe
00000350: d28f 92bd 133b dbbd 6ea5 cd3d a776 9abd
00000360: 3eb1 fe3d 5ae8 d7bd 6388 20bd 0bce f3bd
00000370: bb3f 173d 7457 e03c 4f8a 8c3d f898 583e
00000380: 67a6 ac3d 033b 29be 1374 273d cdf2 f83d
00000390: 40fd 143e 716b f1bb 8b76 08bd fd9e 10be
000003a0: 41e6 ee3d ef73 8ebb 7466 cd3c 7bf3 aebd
000003b0: a8ed 64bd edda 413d c9c7 193e a655 37bd
000003c0: 72a0 823d 7c15 993d 3211 77bc 0ba2 3e3d
000003d0: 6e98 1d3e 4394 8f3e 4380 3a3d a463 d93d
000003e0: a79e 493d a3fa 833d 091b b9bd 4e6a 2b3e
000003f0: 3a6c e13d ab09 123c 46d4 f63a f055 c53c

input_layer.bias f4 [128]
0.068018794 -0.035677083 -0.014651697 -0.03507033 -0.15434527 -0.19922864 -0.032853458 -0.11035757
-0.04739982 -0.11263481 -0.08023293 0.01821775 -0.14592536 -0.053471833 -0.054393113 -0.0056452937
0.019356627 -0.1202718 0.009559998 0.011038214 -0.040692892 -0.030034434 -0.115212224 0.00013379575
-0.24926253 0.033414364 -0.06273031 0.033113956 -0.05954728 -0.044904754 -0.044852816 -0.0057796305
-0.03265582 0.017386753 -0.05623271 -0.111161165 -0.09444819 0.023427444 -0.017275164 0.026311409
-0.06518658 -0.086587876 -0.007275262 -0.021221124 -0.088346384 -0.026034262 -0.0613593 -0.04031828
-0.022276359 -0.052128356 0.028543754 -0.008037004 -0.020925177 -0.0012378623 -0.07461408 0.0043015806
0.007742396 -0.04758079 -0.07015311 -0.13470225 -0.10397386 -0.024737723 0.062234342 -0.04794431
0.023274217 0.010376563 -0.0069877016 0.005223244 -0.011308311 -0.11701219 -0.15698583 -0.028890427
-0.09634992 -0.082940504 -0.06316721 0.0073285117 -0.0405623 -0.07167922 -0.1345913 -0.13282934
0.0061005005 -0.005251667 -0.035595186 0.029486606 -0.1404738 -0.04136262 -0.0023593411 0.055349544
-0.03293549 -0.065722756 -0.005342453 0.029012186 0.046320546 -0.025206143 0.018568048 -0.0812672
-0.021138448 -0.052964088 -0.02657788 0.037018813 -0.050096955 0.023515845 -0.0874086 -0.17464647
0.06596828 -0.044693984 0.03435407 -0.18567 -0.09154654 0.053608272 0.054064345 -0.075351305
-0.0052394937 -0.08902507 -2.3312536e-05 0.0038580513 0.01239039 0.0031947808 -0.021306466 0.013546402
-0.076957025 -0.029220322 -0.10147718 0.023795227 -0.060670163 0.019607658 -0.1814117 -0.031073773
00000000: 704d 8b3d 2222 12bd ac0d 70bc e8a5 0fbd
00000010: b00c 1ebe 9802 4cbe 5991 06bd 2603 e2bd
00000020: 5026 42bd 14ad e6bd 2a51 a4bd 643d 953c
00000030: 756d 15be 4805 5bbd 50cb 5ebd 28fc b8bb
00000040: ca91 9e3c 1051 f6bd 8aa1 1c3c a0d9 343c
00000050: 97ad 26bd c60a f6bc 63f4 ebbd 864b 0c39
00000060: ad3e 7fbe 80dd 083d c078 80bd 80a2 073d
00000070: d9e7 73bd 0cee 37bd 96b7 37bd 0e63 bdbb
00000080: 1cc2 05bd aa6e 8e3c 4554 66bd 77a8 e3bd
00000090: 0d6e c1bd e9ea bf3c a584 8dbc 068b d73c
000000a0: 8b80 85bd fc54 b1bd 5265 eebb ecd7 adbc
000000b0: f3ee b4bd ce45 d5bc e453 7bbd c824 25bd
000000c0: e97c b6bc 8b84 55bd 97d4 e93c a3ad 03bc
000000d0: 476b abbc c43f a2ba 44cf 98bd 46f4 8c3b
000000e0: edb3 fd3b 13e4 42bd 6fac 8fbd 63ef 09be
000000f0: 3ff0 d4bd c4a6 cabc 70e9 7e3d 4161 44bd
00000100: 92a9 be3c 7602 2a3c 17f9 e4bb bf27 ab3b
00000110: 7e46 39bc 16a4 efbd e5c0 20be 9eab ecbc
00000120: 1b53 c5bd b6dc a9bd cf5d 81bd 0324 f03b
00000130: a724 26bd 8ecc 92bd 4dd2 09be 6a04 08be
00000140: b5e6 c73b 2d16 acbb 42cc 11bd e58d f13c
00000150: 5dd8 0fbe da6b 29bd 2d9f 1abb 34b6 623d
00000160: 5de7 06bd a799 86bd be0f afbb f7aa ed3c
00000170: 9dba 3d3d 1d7d cebc 051c 983c 6b6f a6bd
00000180: 8a2a adbc dff0 58bd dbb9 d9bc 0aa1 173d
00000190: 7732 4dbd 4da4 c03c 4803 b3bd 86d6 32be
000001a0: 611a 873d 0a11 37bd dab6 0c3d 4720 3ebe
000001b0: c17c bbbd 5994 5b3d 9372 5d3d c951 9abd
000001c0: 0fb0 abbb c752 b6bd 4a8f c3b7 5cd7 7c3b
000001d0: 1001 4b3c 875f 513b e68a aebc baf1 5d3c
000001e0: a59b 9dbd 755f efbc 45d3 cfbd 35ee c23c
000001f0: 4781 78bd 3da0 a03c fdc3 39be 6d8e febc

input_bn.weight f4 [128]
0.8170879 0.8392829 0.8099961 0.891753 0.8337179 0.96563 0.8418451 0.91003096
0.8725407 0.9753406 0.85129386 0.82562846 1.0636483 1.0517617 0.9430021 0.8473387
0.8217095 0.94399196 0.88137555 0.87082005 0.85860676 0.893777 0.900909 0.80456066
0.99290663 0.8547604 0.94582105 0.85820735 0.8903306 0.918813 0.86622334 0.88157403
0.8796026 0.92066294 0.8224744 0.9617256 0.87858164 0.87791383 0.88280034 0.8377918
1.0558273 0.8212384 0.9166308 0.7782624 0.8666582 0.8508081 0.9237883 0.8359456
0.8293456 0.8683157 0.91254455 0.9030115 0.853 0.8673562 0.90460885 0.8711655
0.88765585 0.84275407 0.8931687 0.89272773 0.999729 0.82264864 0.93203455 0.89443296
0.88229614 0.91983193 0.8351815 0.8911066 0.88093305 0.8511069 1.1061764 0.84109026
0.94327456 0.8700799 0.86536187 0.8587095 0.88517094 1.0719465 0.87419385 0.8990193
0.92416626 0.86338437 0.9092315 0.89524645 0.91514164 0.83925104 0.8765374 0.8196016
0.8360709 0.83591604 0.8439301 0.8402266 0.8835496 0.8507491 0.82997787 0.96250707
0.87471455 0.84128046 0.89049065 0.8510684 0.87324 0.883822 0.8641204 0.9972187
0.82230306 0.82039666 0.8251723 0.94236964 0.8577878 0.84712857 0.9404082 0.91937494
0.89092004 0.89506334 0.8867816 0.8445331 0.8318215 0.8488439 0.8780679 0.88792837
0.93192756 0.86322093 0.9265727 0.8223437 0.8499188 0.91111594 0.96328783 0.9486528
00000000: ac2c 513f 3edb 563f e85b 4f3f ed49 643f
00000010: 896e 553f 8733 773f 2983 573f caf7 683f
00000020: d45e 5f3f ecaf 793f 65ee 593f 635c 533f
00000030: a125 883f 21a0 863f 9668 713f 30eb 583f
00000040: 8e5b 523f 75a9 713f d4a1 613f 10ee 5e3f
00000050: a7cd 5b3f 92ce 643f f9a1 663f b0f7 4d3f
00000060: 212f 7e3f 94d1 5a3f 5421 723f 7ab3 5b3f
00000070: b5ec 633f 5437 6b3f d0c0 5d3f d6ae 613f
00000080: a32d 613f 91b0 6b3f af8d 523f a633 763f
00000090: baea 603f f6be 603f 34ff 613f 8679 563f
000000a0: 5925 873f ae3c 523f 51a8 6a3f 343c 473f
000000b0: 50dd 5d3f 8fce 593f 647d 6c3f 8800 563f
000000c0: fe4f 543f f049 5e3f 859c 693f c32b 673f
000000d0: 355e 5a3f 0e0b 5e3f 7294 673f b404 5f3f
000000e0: 6a3d 633f bbbe 573f b4a6 643f ce89 643f
000000f0: 3dee 7f3f 1a99 523f d199 6e3f 8ff9 643f
00000100: 29de 613f 1b7a 6b3f 74ce 553f 901f 643f
00000110: d484 613f 24e2 593f 3097 8d3f b151 573f
00000120: 717a 713f 8ebd 5e3f 5b88 5d3f 63d4 5b3f
00000130: 909a 623f 8b35 893f 2bcb 5f3f 2126 663f
00000140: 2996 6c3f c206 5d3f 65c3 683f df2e 653f
00000150: b946 6a3f 28d9 563f c164 603f 69d1 513f
00000160: be08 563f 98fe 553f ce0b 583f 1719 573f
00000170: 4e30 623f b1ca 593f 6e79 543f dd66 763f
00000180: 4bed 5f3f 285e 573f 32f7 633f 9edf 593f
00000190: a88c 5f3f 2942 623f ff36 5d3f ba49 7f3f
000001a0: 7482 523f 8405 523f 7e3e 533f 233f 713f
000001b0: fb97 5b3f 6bdd 583f 97be 703f 285c 6b3f
000001c0: 5613 643f df22 653f 1e04 633f 5233 583f
000001d0: 41f2 543f d54d 593f 0fc9 603f 464f 633f
000001e0: ce92 6e3f 0cfc 5c3f de33 6d3f 1e85 523f
000001f0: 4794 593f e53e 693f 089a 763f e9da 723f

input_bn.bias f4 [128]
0.024366455 0.0072858143 0.0034270503 0.03884046 -0.06449132 0.012773956 -0.005541342 0.056963127
-0.012787119 0.020389352 0.028622387 0.08565694 0.1396966 0.05791956 0.033152215 0.030645456
0.07674973 0.09731005 0.013114982 0.034473013 0.045159884 0.00054625963 0.017884739 0.009899954
0.008056317 -0.015613216 0.012445374 0.0032041601 -0.0015401341 0.0046588774 -0.040840708 0.09265547
-0.03407138 0.017315527 0.0037689751 -0.0074264696 -0.03800434 0.035166662 0.0075161504 0.018446404
0.041225024 -0.066276096 0.036903214 -0.03678812 -0.007951345 -0.017280502 0.04699056 -0.024144968
0.03681859 0.02520981 0.02483786 0.015031264 0.002849128 0.037188362 0.006589142 0.02756904
-0.0028129271 0.012253042 -0.059221722 -0.08051327 0.089584775 0.035503358 0.111064 -0.036723595
0.038886778 0.027065298 0.0021725704 0.07114749 0.06801196 -0.04814399 0.12767814 0.0011500485
-0.018248094 -0.027470944 0.045863457 -0.047825646 -0.044937193 0.09767117 -0.08896802 0.012198928
-0.03182563 -0.05718996 0.011096534 -0.03926228 0.0071129655 -0.03935566 0.05999979 0.015404059
0.0031567789 0.038167574 0.038888913 0.029984202 0.009294005 -0.013085623 0.06253045 0.07395688
0.03842529 0.011362825 0.02890787 0.0014080094 -0.014682261 0.009442741 0.015211584 -0.042853784
0.010089392 0.051664565 -0.029839912 -0.089322664 -0.02812505 0.046570096 0.02457479 -0.034847733
0.008746158 0.050989952 -0.041413456 -0.010752774 -0.00072939985 0.029480424 0.0072575887 0.0024092006
-0.11138603 -0.031486303 0.08310106 -0.021939738 0.022583028 -0.060091324 -0.04841333 0.038820047
00000000: 299c c73c d7bd ee3b 5d98 603b 2d17 1f3d
00000010: 0614 84bd db49 513c 2594 b5bb 2b52 693d
00000020: 1081 51bc 9207 a73c 7f79 ea3c e86c af3d
00000030: a00c 0f3e 0f3d 6d3d 9eca 073d 2e0c fb3c
00000040: f62e 9d3d 7e4a c73d 39e0 563c 9333 0d3d
00000050: 92f9 383d dd32 0f3a 0483 923c 6b33 223c
00000060: a5fe 033c 93ce 7fbc afe7 4b3c e3fc 513b
00000070: 53de c9ba 7fa9 983b 9648 27bd 27c2 bd3d
00000080: 6e8e 0bbd 4bd9 8d3c e900 773b be59 f3bb
00000090: 70aa 1bbd eb0a 103d 0a4a f63b ea1c 973c
000000a0: 92db 283d c3bb 87bd d327 173d 24af 16bd
000000b0: 5c46 02bc d78f 8dbc 2c79 403d abcb c5bc
000000c0: 17cf 163d ce84 ce3c c578 cb3c b145 763c
000000d0: 70b8 3a3b d352 183d bbe9 d73b 78d8 e13c
000000e0: 1659 38bb fcc0 483c 7a92 72bd 24e4 a4bd
000000f0: 3978 b73d f86b 113d 8675 e33d 7b6b 16bd
00000100: be47 1f3d 0bb8 dd3c af61 0e3b c6b5 913d
00000110: db49 8b3d a232 45bd 0fbe 023e 39bd 963a
00000120: 077d 95bc bf0a e1bc 52db 3b3d d3e4 43bd
00000130: 1010 38bd d307 c83d de34 b6bd 03de 473c
00000140: 985b 02bd 0540 6abd 3dce 353c 7cd1 20bd
00000150: e113 e93b 6733 21bd 57c2 753d 4e61 7c3c
00000160: f6e1 4e3b 9a55 1c3d fb49 1f3d 6ea1 f53c
00000170: e245 183c 1565 56bc f70f 803d b476 973d
00000180: d663 1d3d 242b 3a3c 33d0 ec3c f58c b83a
00000190: de8d 70bc bab5 1a3c 023a 793c 7387 2fbd
000001a0: fa4d 253c 399e 533d d572 f4bc cdee b6bd
000001b0: 8166 e6bc 49c0 3e3d 1251 c93c 7fbc 0ebd
000001c0: 0c4c 0f3c d7da 503d 28a1 29bd 672c 30bc
000001d0: 3235 3fba ee80 f13c 11d1 ed3b aee3 1d3b
000001e0: 5c1e e4bd c8f7 00bd e330 aa3d f7ba b3bc
000001f0: 0b00 b93c 5222 76bd 0e4d 46bd c501 1f3d

input_bn.running_mean f4 [128]
0.24349381 0.2766829 0.50173676 0.29897907 0.16484924 0.48319972 0.41063637 0.10857984
0.2678534 0.14994058 0.32173964 0.25473818 0.09150166 0.19749779 0.1347743 0.45752648
0.22273283 0.14435983 0.20870858 0.19815858 0.2002875 0.34316742 0.58607084 0.32676363
0.24548735 0.35858083 0.20764253 0.52414554 0.22168265 0.17199077 0.3234525 0.26185837
0.431664 0.17511898 0.2850718 0.30704656 0.20356353 0.41462043 0.20059551 0.3455131
0.15699582 0.19809341 0.18360516 0.32756966 0.16753943 0.33129606 0.16124175 0.31617868
0.37472323 0.469383 0.34189487 0.33240628 0.3616105 0.30026683 0.1417458 0.41678205
0.23771778 0.172782 0.41818762 0.3221546 0.04718236 0.20701662 0.23469359 0.3968354
0.35338128 0.14311461 0.29905587 0.2344719 0.34359056 0.21334803 0.11352865 0.2045065
0.31594467 0.18932208 0.3539548 0.56254226 0.27263108 0.14687106 0.50831234 0.25316352
0.268477 0.18594638 0.7564983 0.42352048 0.3898216 0.4335974 0.24830708 0.25593287
0.35141867 0.51448905 0.3524946 0.32206818 0.24991423 0.3470684 0.2757347 0.106632896
0.21866333 0.3480781 0.3282995 0.1736115 0.25713858 0.25138313 0.35338262 0.43725973
0.30055547 0.28217265 0.44564328 0.15711224 0.29490113 0.29615396 0.36105615 0.26727208
0.69385123 0.13254175 0.6129833 0.3363894 0.3461348 0.39886424 0.17770706 0.20291473
0.30377772 0.3636953 0.1342733 0.57606626 0.20714292 0.34427285 0.21646483 0.13840595
00000000: 7156 793e 62a9 8d3e d271 003f c913 993e
00000010: 3dce 283e f465 f73e ee3e d23e 1b5f de3d
00000020: 1524 893e 068a 193e 0fbb a43e 0b6d 823e
00000030: 3965 bb3d dc3c 4a3e 4602 0a3e e940 ea3e
00000040: 1314 643e 10d3 133e b4b7 553e 15ea 4a3e
00000050: 2b18 4d3e a4b3 af3e bd08 163f 904d a73e
00000060: 0961 7b3e e897 b73e 3ea0 543e 672e 063f
00000070: c700 633e 591e 303e 919b a53e 4d12 863e
00000080: 1003 dd3e 6452 333e eef4 913e 3535 9d3e
00000090: f572 503e 2149 d43e e968 4d3e 18e7 b03e
000000a0: 83c3 203e 00d9 4a3e fe02 3c3e 36b7 a73e
000000b0: 758f 2b3e a39f a93e 8f1c 253e 2ce2 a13e
000000c0: b9db bf3e f852 f03e d80c af3e 2831 aa3e
000000d0: 0325 b93e 93bc 993e d025 113e 7564 d53e
000000e0: 4a6c 733e c4ed 303e b01c d63e 73f1 a43e
000000f0: 4a42 413d 2afc 533e 8453 703e 022e cb3e
00000100: 64ee b43e a38c 123e da1d 993e 6719 703e
00000110: 1aeb af3e e877 5a3e b581 e83d 276a 513e
00000120: 80c3 a13e a6dd 413e 9039 b53e c502 103f
00000130: 4d96 8b3e 5e65 163e c220 023f a69e 813e
00000140: d175 893e ba68 3e3e dfa9 413f add7 d83e
00000150: b296 c73e 7a00 de3e 3644 7e3e a209 833e
00000160: 26ed b33e 8eb5 033f 2c7a b43e 1fe6 a43e
00000170: 84e9 7f3e f3b2 b13e 192d 8d3e 5962 da3d
00000180: 48e9 5f3e 4b37 b23e df16 a83e 37c7 313e
00000190: aba7 833e 4ab5 803e 91ee b43e 82e0 df3e
000001a0: 68e2 993e ef78 903e 5b2b e43e 08e2 203e
000001b0: 48fd 963e 7ea1 973e 5adc b83e e3d7 883e
000001c0: 3ca0 313f 06b9 073e 79ec 1c3f 3b3b ac3e
000001d0: 9538 b13e ef37 cc3e d7f8 353e e1c8 4f3e
000001e0: c188 9b3e 4536 ba3e f17e 093e 1479 133f
000001f0: 461d 543e 8844 b03e f5a8 5d3e 4aba 0d3e

input_bn.running_var f4 [128]
0.17398115 0.2691606 0.6778675 0.24818003 0.051362593 0.29575884 0.36892083 0.052805457
0.1713259 0.07646735 0.28649756 0.22140293 0.05151872 0.15142699 0.08276068 0.4730945
0.13108732 0.095926635 0.10623777 0.13173413 0.15615979 0.22352646 0.4316281 0.29387832
0.1209867 0.2664978 0.06590575 0.32984212 0.12476201 0.078669764 0.21979244 0.22401406
0.3886992 0.09543049 0.19728611 0.17348927 0.13959217 0.32066384 0.17454848 0.25354463
0.15266114 0.12212979 0.11672633 0.23360966 0.1871995 0.14986143 0.091057725 0.25206855
0.62596136 0.5696389 0.23997419 0.27275997 0.2828575 0.28991464 0.14529267 0.24161366
0.16849428 0.104120985 0.25256845 0.17646942 0.02359812 0.07413542 0.14224793 0.31415337
0.22339101 0.095425725 0.18180422 0.19657823 0.37838015 0.12195258 0.048616175 0.07440649
0.1567094 0.16753358 0.55037 0.39872655 0.10192981 0.0830983 0.4577136 0.16536254
0.14412986 0.09623404 0.6639055 0.22455235 0.2505206 0.34668946 0.17796685 0.43496808
0.18297148 0.5210462 0.4088123 0.17300294 0.15581705 0.31037408 0.23764159 0.054776385
0.15478857 0.23459178 0.37310606 0.096749775 0.18023832 0.17350383 0.2612803 0.23084408
0.19793285 0.32998267 0.41661108 0.0691622 0.27931055 0.26166597 0.30103284 0.12684424
0.59478754 0.11303466 0.4312799 0.5096245 0.28226766 0.4975846 0.078271426 0.12717763
0.09496108 0.5472265 0.067277 0.3683236 0.14047709 0.16354097 0.075366326 0.09474969
00000000: 1d28 323e 6bcf 893e b988 2d3f e822 7e3e
00000010: 9561 523d b46d 973e 31e3 bc3e 894a 583d
00000020: 0f70 2f3e ea9a 9c3d cfaf 923e 73b7 623e
00000030: 4b05 533d ad0f 1b3e 6e7e a93d 7139 f23e
00000040: c13b 063e 2f75 c43d 3093 d93d 50e5 063e
00000050: 5ae8 1f3e 1fe4 643e 5cfe dc3e 3877 963e
00000060: e0c7 f73d 6672 883e 98f9 863d 11e1 a83e
00000070: 3a83 ff3d 9d1d a13d 4511 613e f163 653e
00000080: 9503 c73e 1071 c33d 5f05 4a3e 2ca7 313e
00000090: 40f1 0e3e 0d2e a43e d6bc 323e 9ad0 813e
000000a0: 3453 1c3e 2f1f fa3d 370e ef3d 5f37 6f3e
000000b0: 3ab1 3f3e 4675 193e 797c ba3d 210f 813e
000000c0: 013f 203f dbd3 113f cbbb 753e 32a7 8b3e
000000d0: b3d2 903e b16f 943e 9ac7 143e 9269 773e
000000e0: c489 2c3e 623d d53d a750 813e 66b4 343e
000000f0: d850 c13c 50d4 973d 71a9 113e b6d8 a03e
00000100: 9dc0 643e 906e c33d e32a 3a3e ce4b 493e
00000110: 0bbb c13e 46c2 f93d c121 473d 6e62 983d
00000120: 6e78 203e ec8d 2b3e 0ce5 0c3f e325 cc3e
00000130: 94c0 d03d 712f aa3d 7059 ea3e cc54 293e
00000140: c796 133e 5a16 c53d b6f5 293f 0df1 653e
00000150: 3c44 803e 4881 b13e f13c 363e 23b4 de3e
00000160: e05c 3b3e 4963 053f d94f d13e af27 313e
00000170: 818e 1f3e 5ae9 9e3e 5158 733e 345d 603d
00000180: e580 1e3e d438 703e c207 bf3e bf24 c63d
00000190: 6590 383e fdaa 313e 88c6 853e 6462 6c3e
000001a0: e9ae 4a3e 7df3 a83e 0c4e d53e e9a4 8d3d
000001b0: cb01 8f3e 15f9 853e fa20 9a3e 75e3 013e
000001c0: ff43 183f b77e e73d b8d0 dc3e c076 023f
000001d0: 6385 903e 69c3 fe3e c54c a03d da3a 023e
000001e0: f47a c23d 0917 0c3f 86c8 893d e994 bc3e
000001f0: 3ad9 0f3e 4977 273e a959 9a3d 200c c23d

hidden_layers.0.weight f4 [64, 128]
0.12109348 -0.0793757 0.009992184 -0.014991664 -0.09291495 -0.011982889 0.037644494 -0.13767637
-0.1684312 -0.12907813 0.1378126 -0.06908474 -0.2662628 -0.009207567 -0.062109213 0.016917396
-0.1471819 -0.17195442 0.013770026 0.11774544 -0.064073384 -0.026403358 0.11752136 0.108603865
0.029994847 -0.12689131 0.090369046 -0.11341634 -0.12155204 -0.20401621 0.059779335 0.05203702
0.14854823 -0.044932615 -0.050019912 0.17105784 0.1623499 0.0449214 0.0024693562 -0.07308749
-0.10928454 0.12758343 -0.018796014 -0.12727885 0.15453793 0.12424064 -0.037091423 0.06295071
0.08382106 0.12355284 0.012336 -0.10829555 -0.027349435 0.0673539 -0.16583094 -0.119977154
-0.014077137 -0.107712716 0.061179876 0.12295183 -0.25651985 -0.06655172 -0.10412404 0.01010598
-0.019449338 -0.02828669 0.1363548 -0.1995329 0.12231615 -0.037467904 -0.1880379 -0.005075387
0.13741864 0.14503855 -0.07225195 0.054992784 -0.11049968 -0.17977583 0.04868369 0.10080699
-0.040686432 0.123863734 0.024884181 -0.034613475 0.046154648 0.1485373 -0.00040429895 -0.017216293
-0.071417555 0.1751189 0.115882054 0.07739595 -0.10605903 -0.13491413 -0.08288827 -0.07118947
0.19043112 -0.060348574 -0.16467443 -0.07594041 0.06466362 0.09256963 0.01640852 0.034879304
-0.10292029 -0.099796265 -0.082637 0.13327627 -0.03579664 -0.07827557 0.009654374 0.104965374
-0.053041454 -0.024379244 0.075037524 0.010315443 0.093466796 -0.04399785 -0.018845225 -0.14521624
0.12141066 -0.14343938 -0.16193432 0.011229505 -0.022050567 -0.06416176 -0.08167412 -0.038771365
-0.048633046 0.19795102 0.093057364 0.111048296 -0.10629303 -0.092482276 -0.08295911 0.14666761
0.121873036 -0.04758161 -0.099939585 0.12123955 -0.013551223 0.08718485 -0.13604194 -0.12789169
-0.0043649594 -0.08851113 0.14032364 -0.15202183 -0.03659848 -0.14682007 0.12805085 0.041812442
-0.13745208 -0.06201264 0.0435079 -0.057669025 0.15700553 0.01717927 0.15545166 0.1084536
0.070904076 0.05103101 -0.07727387 0.0037206511 0.052965455 0.004192363 0.0068372134 0.10588125
-0.03900803 -0.0622471 0.031900916 0.009295865 -0.09603884 0.011734749 0.05068051 -0.081212565
-0.021558007 0.011244999 -0.034570042 0.0812518 -0.14939745 -0.05118206 0.16307066 -0.007569024
-0.043058526 -0.046368197 -0.0045837495 -0.036757704 -0.0075048567 -0.06539354 0.07911501 0.13604173
0.07557583 0.05209606 0.038990147 0.06356089 -0.11970203 0.077457845 0.15236403 -0.040139064
0.058774695 0.050379906 -0.06511675 0.0115957875 0.075779825 0.23101224 -0.13392057 -0.179876
-0.100032866 0.04295331 -0.15923096 -0.06616656 -0.079236254 -0.109809905 0.07121683 0.07181785
0.046942785 0.06903634 -0.026433796 0.01891079 0.09300313 0.1324679 0.05628511 0.009638048
0.019981287 0.11173116 0.05434475 -0.1043026 -0.06822205 -0.05488011 -0.16847086 -0.18369447
0.10099269 -0.11803876 -0.10485458 -0.074143454 0.03771816 0.07696232 -0.20996909 -0.12926674
-0.044027667 0.018444005 -0.107334346 -0.07230995 -0.06629692 -0.047543373 0.08381087 -0.069746196
-0.060115486 -0.086163916 0.12027754 -0.1258035 0.074193984 -0.19496469 -0.040637534 0.081492886
00000000: dcff f73d ba8f a2bd 42b6 233c 999f 75bc
00000010: 314a bebd e153 44bc 1d31 1a3d 09fb 0cbe
00000020: 3a79 2cbe 0f2d 04be bf1e 0d3e 4d7c 8dbd
00000030: 9953 88be 56db 16bc 3b66 7ebd 5a96 8a3c
00000040: dab6 16be d214 30be ad9b 613c 8524 f13d
00000050: e838 83bd db4b d8bc 0aaf f03d b46b de3d
00000060: c1b7 f53c ccef 01be 6813 b93d d346 e8bd
00000070: 47f0 f8bd a0e9 50be 2ddb 743d c524 553d
00000080: 071d 183e 430b 38bd aee1 4cbd c929 2f3e
00000090: 0d3f 263e 80ff 373d ecd4 213b e5ae 95bd
000000a0: 93d0 dfbd 3ba5 023e 19fa 99bc 6355 02be
000000b0: 313f 1e3e e071 fe3d 2ded 17bd 4dec 803d
000000c0: 60aa ab3d 4509 fd3d ef1c 4a3c 0fca ddbd
000000d0: ec0b e0bc d7f0 893d 96cf 29be 95b6 f5bd
000000e0: cba3 66bc 7c98 dcbd c097 7a3d 2bce fb3d
000000f0: 9256 83be 454c 88bd fc3e d5bd 8d93 253c
00000100: 3854 9fbc 7db9 e7bc 98a0 0b3e 5a52 4cbe
00000110: e480 fa3d f277 19bd 028d 40be 6f4f a6bb
00000120: 79b7 0c3e fc84 143e d5f8 93bd 1d40 613d
00000130: a84d e2bd 2817 38be 8d68 473d e573 ce3d
00000140: d1a6 26bd 45ac fd3d e9d9 cb3c dcc6 0dbd
00000150: a80c 3d3d 291a 183e 16f8 d3b9 2f09 8dbc
00000160: 5e43 92bd 5e52 333e 9253 ed3d c581 9e3d
00000170: 7a35 d9bd ee26 0abe 53c1 a9bd c9cb 91bd
00000180: 6000 433e 1130 77bd 6aa0 28be a586 9bbd
00000190: 5c6e 843d 2595 bd3d 296b 863c 9add 0e3d
000001a0: dfc7 d2bd fc61 ccbd 963d a9bd 9379 083e
000001b0: 7f9f 12bd f14e a0bd 612d 1e3c 16f8 d63d
000001c0: ff41 59bd fbb6 c7bc 46ad 993d 1b02 293c
000001d0: 856b bf3d 1737 34bd 4d61 9abc 91b3 14be
000001e0: 27a6 f83d c6e1 12be 1cd2 25be f5fb 373c
000001f0: 64a3 b4bc 3e67 83bd c344 a7bd b9ce 1ebd
00000200: 7233 47bd acb3 4a3e dc94 be3d 4a6d e33d
00000210: 29b0 d9bd 5967 bdbd 77e6 a9bd 0930 163e
00000220: 9298 f93d efe4 42bd 20ad ccbd 714c f83d
00000230: f305 5ebc f88d b23d 944e 0bbe 0af6 02be
00000240: ef07 8fbb 5345 b5bd 00b1 0f3e 9cab 1bbe
00000250: 4ae8 15bd 0058 16be c31f 033e 8643 2b3d
00000260: 3dc0 0cbe f700 7ebd 5735 323d 5b36 6cbd
00000270: 0fc6 203e 8abb 8c3c b82e 1f3e ec1c de3d
00000280: 2836 913d e405 513d c341 9ebd 2bd6 733b
00000290: 4ef2 583d 1760 893b b40a e03b 45d8 d83d
000002a0: e2c6 1fbd d1f6 7ebd 89aa 023d af4d 183c
000002b0: 03b0 c4bd 1b43 403c 5e96 4f3d c652 a6bd
000002c0: 6b9a b0bc f23c 383c 5199 0dbd 5867 a63d
000002d0: a5fb 18be 48a4 51bd fffb 263e 9305 f8bb
000002e0: 235e 30bd 94ec 3dbd 4733 96bb 3f8f 16bd
000002f0: 4deb f5bb 0ced 85bd 0d07 a23d 864e 0b3e
00000300: 80c7 9a3d ae62 553d 22b4 1f3d 362c 823d
00000310: 5726 f5bd 38a2 9e3d 5105 1c3e dc68 24bd
00000320: bcbd 703d 295b 4e3d ee5b 85bd 42fc 3d3c
00000330: 7432 9b3d 798e 6c3e 7922 09be 6a31 38be
00000340: 08de ccbd cfef 2f3d 710d 23be 5582 87bd
00000350: 9e46 a2bd 04e4 e0bd 21da 913d 3d15 933d
00000360: 1447 403d ed62 8d3d b08b d8bc cdea 9a3c
00000370: 6d78 be3d aaa5 073e 378b 663d e7e8 1d3c
00000380: ccaf a33c 4ed3 e43d 9a98 5e3d 9a9c d5bd
00000390: 01b8 8bbd f7c9 60bd a083 2cbe 671a 3cbe
000003a0: 41d5 ce3d 4ebe f1bd ffbd d6bd 86d8 97bd
000003b0: 5b7e 1a3d 6c9e 9d3d 2302 57be 805e 04be
000003c0: 5b56 34bd e217 973c 1cd2 dbbd 3d17 94bd
000003d0: aec6 87bd d7bc 42bd 09a5 ab3d 18d7 8ebd
000003e0: a83b 76bd b576 b0bd 1254 f63d a2d2 00be
000003f0: 04f3 973d d3a4 47be 8b73 26bd bee5 a63d

hidden_layers.0.bias f4 [64]
0.04115229 0.06239459 0.02328496 -0.035341833 -0.025752923 -0.0016391957 -0.0082762325 -0.03205343
0.014388616 0.012010709 -0.023613121 0.054026913 -0.024043992 -0.06430711 -0.021402376 -0.035412822
-0.0073619527 0.011091696 -0.009062791 -0.006461224 0.07313114 -0.010233127 0.028183348 0.031627998
-0.049014267 0.042013504 0.0036626002 0.011985838 0.049282596 -0.018979935 -0.043278627 0.0167302
-0.029683243 -0.026917763 -0.0011408316 0.014633293 -0.010299888 0.01641403 -0.034933563 -0.085255854
-0.040761266 0.028124036 0.034019995 -0.013219847 -0.098390386 -0.0051454357 -0.007470993 -0.0019816319
-0.05351006 0.035191342 0.0032191384 0.024963463 0.022340693 -0.057984937 0.089878924 -0.02058104
-0.019394794 0.019684179 0.05716913 0.048314042 0.010819327 0.019087788 -0.00032523484 0.041946147
00000000: 4e8f 283d 7891 7f3d 1ac0 be3c 99c2 10bd
00000010: cbf7 d2bc 48da d6ba 0999 07bc 754a 03bd
00000020: 3bbe 6b3c 91c8 443c 4e70 c1bc 534b 5d3d
00000030: e8f7 c4bc 72b3 83bd 0954 afbc 090d 11bd
00000040: 893c f1bb f2b9 353c 1a7c 14bc adb8 d3bb
00000050: c7c5 953d d8a8 27bc c4e0 e63c 5c8c 013d
00000060: 2fc3 48bd 5a16 2c3d 3c08 703b 4060 443c
00000070: 8cdc 493d cf7b 9bbc ee44 31bd c60d 893c
00000080: 462a f3bc a482 dcbc f587 95ba 7bc0 6f3c
00000090: ddc0 28bc b776 863c 7f16 0fbd 9f9a aebd
000000a0: 49f5 26bd 6164 e63c 8d58 0b3d 0f98 58bc
000000b0: e680 c9bd 0b9b a8bb 3bcf f4bb 44de 01bb
000000c0: 5d2d 5bbd cc24 103d 2ef8 523b 2d80 cc3c
000000d0: d403 b73c 9d81 6dbd 7112 b83d 9299 a8bc
000000e0: d5e1 9ebc b740 a13c 2d2a 6a3d f2e4 453d
000000f0: 8c43 313c fe5d 9c3c 4884 aab9 b9cf 2b3d

hidden_layers.1.weight f4 [32, 64]
-0.2372309 0.13848305 -0.00014369904 0.08649096 -0.14788552 0.05071967 0.17460005 -0.011036431
0.04808308 -0.2064389 0.09795628 0.15715522 0.10395385 -0.083082005 -0.20414199 0.119592175
-0.18643631 0.1253145 -0.005078296 0.09170853 -0.092083156 -0.0487943 -0.1159465 -0.08125891
0.12846436 0.10001941 0.16236477 -0.12138579 0.05386886 -0.03477847 -0.13446604 0.045090687
-0.05239863 -0.14620903 -0.21305983 -0.10651439 0.1906498 -0.1518692 -0.1274627 -0.122185074
-0.25175565 0.14218338 0.17808133 -0.13590719 -0.04473303 0.015719024 -0.17734174 0.2911237
0.08610508 0.049132615 -0.2023459 -0.15868637 -0.042069368 0.12478477 -0.09170042 0.09755108
-0.12868677 -0.23425345 0.0003836841 0.0073014447 -0.104549654 0.032127988 0.13829477 0.06701284
0.08940052 -0.063747644 0.20770508 0.22300935 -0.01980351 0.18423364 0.02137178 0.16797489
-0.2426423 0.07633114 0.060760863 -0.013404028 0.014923576 0.09942543 -0.027986651 -0.06433052
-0.08585977 -0.12859072 -0.20766462 0.1174951 0.11000086 -0.08071487 -0.060367946 0.12548189
-0.05363139 -0.089024246 -0.21598932 0.063451454 -0.25046387 -0.08345526 0.11416213 -0.13127169
-0.10509986 0.16376245 0.053834885 -0.076638475 0.104818285 -0.17898485 0.09367584 -0.09734178
-0.16426328 -0.06872773 0.058430802 0.07077652 -0.04424252 -0.16597493 -0.0109117525 0.07007892
0.22162093 0.18183187 0.19951996 -0.10131027 0.20585364 0.06643143 0.10412459 0.0865976
0.11130874 0.2373924 0.029820222 -0.064100966 0.039815966 0.16557623 0.122799434 0.2053148
0.20297347 -0.13184318 0.070498556 -0.1512231 -0.061712958 0.07100055 0.004427414 -0.14849843
-0.25992903 0.10421253 0.080931805 0.13569494 -0.13191943 -0.11874518 -0.11600618 0.034725208
0.08587523 -0.1868699 0.13691945 0.064716265 0.18521301 0.049644265 0.13612297 -0.012341317
-0.045500353 -0.031969972 -0.04729884 0.110880874 0.14213882 0.040152602 -0.012294335 0.009128298
-0.14800385 0.12332203 -0.10076911 0.068140715 -0.09293135 -0.0980737 -0.1442781 0.18473014
0.20442827 -0.1534093 -0.102205925 -0.028029263 -0.16773282 -0.1935011 0.059504326 -0.037988286
0.1434947 0.1823391 0.033035792 -0.035930462 0.15726513 0.019681985 -0.15094286 -0.004040943
0.15609147 0.06873347 -0.069941305 0.16255562 0.14038043 0.12901199 0.03251798 -0.14481401
0.15727726 -0.15328476 0.17971717 0.030426785 0.0916033 -0.10330568 -0.040007405 0.039534923
-0.16581418 -0.104413874 0.11187456 0.073891394 0.08802551 -0.12506576 0.23112619 0.07352957
-0.07837655 -0.09813964 -0.22111969 -0.115162484 0.21637325 -0.022731505 -0.031996418 0.047431454
-0.055390675 0.08586474 0.09097846 -0.08048962 0.049562275 -0.15426403 -0.21937326 0.048171774
-0.1736976 0.10754245 0.17009999 0.022511328 0.015086608 0.14037727 0.014688715 0.25124803
0.16384979 0.1788387 -0.27882132 0.12946102 0.09792757 0.041340306 0.096431315 -0.25101504
-0.06869294 -0.07262703 -0.04678269 0.08401437 0.16875736 -0.0044823517 -0.15438583 0.084485196
-0.008615966 -0.13009612 -0.16266677 0.007800932 -0.034491565 -0.03947191 0.12576668 -0.18451504
00000000: a8ec 72be 80ce 0d3e ebad 16b9 2c22 b13d
00000010: 4d6f 17be 6ebf 4f3d 5bca 323e 26d2 34bc
00000020: c4f2 443d b864 53be 4d9d c83d 4ced 203e
00000030: c2e5 d43d e626 aabd 990a 51be beec f43d
00000040: 29e9 3ebe 7252 003e d667 a6bb afd1 bb3d
00000050: 1896 bcbd 88dc 47bd 5c75 edbd 126b a6bd
00000060: 298c 033e fad6 cc3d f342 263e 1d99 f8bd
00000070: 98a5 5c3d de73 0ebd 77b1 09be 03b1 383d
00000080: f29f 56bd d2b7 15be 5b2c 5abe 3724 dabd
00000090: b339 433e 9983 1bbe 9585 02be 2b3c fabd
000000a0: 1ee6 80be 8598 113e f45a 363e 412b 0bbe
000000b0: fb39 37bd 2fc5 803c 1399 35be 2a0e 953e
000000c0: dc57 b03d 483f 493d c333 4fbe ae7e 22be
000000d0: ee50 2cbd 288f ff3d 6ecd bbbd dcc8 c73d
000000e0: 77c6 03be 23e0 6fbe 3529 c939 f540 ef3b
000000f0: 211e d6bd a398 033d 259d 0d3e 073e 893d
00000100: 9f17 b73d 208e 82bd a4b0 543e 905c 643e
00000110: f83a a2bc bea7 3c3e df13 af3c 9c01 2c3e
00000120: 3977 78be 8053 9c3d 62e0 783d 919c 5bbc
00000130: 0482 743c 8f9f cb3d 4344 e5bc b8bf 83bd
00000140: 3fd7 afbd 49ad 03be 09a6 54be 45a1 f03d
00000150: 2248 e13d d64d a5bd 6144 77bd 537e 003e
00000160: 97ac 5bbd 5852 b6bd 4e2c 5dbe d6f2 813d
00000170: cd3c 80be 97ea aabd d6cd e93d 166c 06be
00000180: 983e d7bd 58b1 273e f881 5c3d a2f4 9cbd
00000190: f8aa d63d ce47 37be 1ed9 bf3d 215b c7bd
000001a0: a234 28be 20c1 8cbd 2355 6f3d 48f3 903d
000001b0: a537 35bd 55f5 29be 35c7 32bc 8985 8f3d
000001c0: 99f0 623e 2232 3a3e f64e 4c3e c27b cfbd
000001d0: 4ccb 523e 340d 883d 463f d53d 155a b13d
000001e0: d6f5 e33d fe16 733e 8a49 f43c 5e47 83bd
000001f0: 1116 233d d18c 293e 457e fb3d 0b3e 523e
00000200: 47d8 4f3e e601 07be 8c61 903d 3ada 1abe
00000210: bac6 7cbd bd68 913d d713 913b f90f 18be
00000220: 6b15 85be 616d d53d 93bf a53d 9df3 0a3e
00000230: e315 07be ac30 f3bd a694 edbd 053c 0e3d
00000240: 5adf af3d d35a 3fbe 9d34 0c3e f689 843d
00000250: 7ba8 3d3e c957 4b3d d263 0b3e 3c33 4abc
00000260: 945e 3abd f2f2 02bd 6ebc 41bd 8315 e33d
00000270: d78c 113e 0e77 243d 2e6e 49bc db8e 153c
00000280: 528e 17be 4390 fc3d 0960 cebd 5c8d 8b3d
00000290: cb52 bebd ddda c8bd a3bd 13be e629 3d3e
000002a0: a555 513e 5417 1dbe 5751 d1bd a09d e5bc
000002b0: 27c2 2bbe 2725 46be cfba 733d 9b99 1bbd
000002c0: 46f0 123e 1ab7 3a3e 8a50 073d d22b 13bd
000002d0: 1c0a 213e 1d3c a13c c490 1abe e369 84bb
000002e0: 71d6 1f3e 22c4 8c3d 633d 8fbd fb74 263e
000002f0: e3bf 0f3e b81b 043e 9331 053d 204a 14be
00000300: 4a0d 213e aef6 1cbe c707 383e 9841 f93c
00000310: 839a bb3d ee91 d3bd cede 23bd 5fef 213d
00000320: 31cb 29be f1d6 d5bd 7d1e e53d 5f54 973d
00000330: b846 b43d 3d11 00be 58ac 6c3e ac96 963d
00000340: e283 a0bd 70fd c8bd 336d 62be 4fda ebbd
00000350: f390 5d3e 6c37 babc ad0e 03bd 7c47 423d
00000360: 55e1 62bd dad9 af3d ea52 ba3d bed7 a4bd
00000370: d001 4b3d 64f7 1dbe 62a3 60be c44f 453d
00000380: c9dd 31be 373f dc3d b12e 2e3e ad69 b83c
00000390: d22d 773c 0fbf 0f3e f0a8 703c 95a3 803e
000003a0: 3dc8 273e 7e21 373e abc1 8ebe 6e91 043e
000003b0: 408e c83d 7454 293d c87d c53d 0b85 80be
000003c0: e2ae 8cbd 7bbd 94bd 359f 3fbd ba0f ac3d
000003d0: bbce 2c3e b1e0 92bb 5217 1ebe 9306 ad3d
000003e0: fb29 0dbc eb37 05be 1e92 26be f69e ff3b
000003f0: 0747 0dbd 4cad 21bd fbc8 003e 83f1 3cbe

hidden_layers.1.bias f4 [32]
0.06575222 0.028649554 0.05069317 0.1582017 0.07856083 0.01981027 0.08249135 0.06866996
0.0052941977 0.09346814 0.0612693 -0.031652812 0.06626318 0.051607374 -0.009269759 0.11788083
0.034917343 0.081829876 0.05999896 0.17663729 0.10858303 0.044092476 0.1345816 0.08600187
0.12317966 0.020815732 0.1298267 0.12932976 0.08997139 0.016326573 0.08679957 0.14082438
00000000: 1aa9 863d 78b2 ea3c a4a3 4f3d a0ff 213e
00000010: 80e4 a03d 2649 a23c 3af1 a83d d6a2 8c3d
00000020: f37a ad3b 396c bf3d 84f5 7a3d 61a6 01bd
00000030: fdb4 873d 4162 533d 30e0 17bc 816b f13d
00000040: 7d05 0f3d 6c96 a73d 78c1 753d 68e0 343e
00000050: c860 de3d 509a 343d c2cf 093e c021 b03d
00000060: 9e45 fc3d c185 aa3c 4af1 043e 056f 043e
00000070: ec42 b83d 4ebf 853c f9c3 b13d 4434 103e

hidden_bns.0.weight f4 [64]
1.0006901 0.92938983 0.85491073 0.8868322 0.8687845 0.81005776 1.0016469 0.8428893
0.9540944 0.8519548 0.88850373 0.93970877 0.8299957 0.9574034 0.9068264 0.82759696
0.7982975 0.87431 0.8535942 0.94534475 0.8762028 0.8681819 0.8049334 0.82006216
1.057238 0.86664164 0.85988945 0.85624623 0.87690806 0.8299982 0.937427 0.9228282
0.90364045 0.8129089 0.91258466 0.884227 0.84007806 0.8309756 0.9767832 0.95290273
0.88492763 0.88080186 0.98887354 0.8179456 0.8619673 0.80204624 0.9254892 0.96820676
0.87522495 0.89881 0.8539503 0.8402933 0.91335577 0.87468976 0.8539178 0.81097394
0.9141739 0.8464854 0.90103555 0.84798306 0.8741828 0.91511786 0.7966602 0.9115212
00000000: 9d16 803f 7eec 6d3f 6edb 5a3f 6f07 633f
00000010: a968 5e3f f25f 4f3f f735 803f 98c7 573f
00000020: 883f 743f b619 5a3f fb74 633f c190 703f
00000030: 997a 543f 6418 753f c625 683f 65dd 533f
00000040: 3a5d 4c3f c8d2 5f3f 2685 5a3f 1d02 723f
00000050: d44e 603f 2b41 5e3f 1e10 4e3f 98ef 513f
00000060: 9353 873f 3adc 5d3f b721 5c3f f432 5b3f
00000070: 0c7d 603f c37a 543f 37fb 6f3f 783e 6c3f
00000080: fb54 673f cc1a 503f 269f 693f b35c 623f
00000090: 5b0f 573f d1ba 543f 770e 7a3f 6ff1 733f
000000a0: 9e8a 623f 3b7c 613f d126 7d3f e264 513f
000000b0: e4a9 5c3f e752 4d3f dcec 6c3f 66dc 773f
000000c0: be0e 603f 6a18 663f 7d9c 5a3f 761d 573f
000000d0: afd1 693f abeb 5f3f 5b9a 5a3f fd9b 4f3f
000000e0: 4d07 6a3f 44b3 583f 44aa 663f 6b15 593f
000000f0: 72ca 5f3f 2a45 6a3f ecf1 4b3f 7459 693f

hidden_bns.0.bias f4 [64]
-0.050901785 0.04736124 -0.007214721 0.024959171 0.018626599 0.012883675 0.09420271 0.13209015
0.022120409 0.06210849 -0.012654913 0.116262905 0.041284677 -0.009437897 -0.046299864 0.012842505
-0.041768454 -0.027002418 -0.09083895 0.0038644306 0.07463218 0.07593795 0.05530722 0.006944649
0.12745868 0.10802575 -0.050850105 -0.06246974 0.050607692 0.028555784 0.06460266 -0.018606165
-0.063860066 0.034738686 -0.026399696 -0.024914613 -0.023807332 -0.048303373 -0.06351653 0.012683812
0.011488491 0.01164725 0.08887889 0.0042743855 -0.0029089267 -0.03718521 -0.024771728 0.06645879
-0.047822557 -0.019240417 0.039258793 -0.060469028 -0.032436695 -0.03300945 0.032791365 -0.056667697
-0.0020306706 -0.038315184 0.06950095 -0.041230988 0.0025256458 -0.043522444 -0.024702068 -0.054340754
00000000: 647e 50bd dcfd 413d 7769 ecbb 2d77 cc3c
00000010: cf96 983c 0d16 533c 5aed c03d a442 073e
00000020: dc35 b53c 7965 7e3d 8d56 4fbc 3f1b ee3d
00000030: 1f1a 293d 69a1 1abc eda4 3dbd 5f69 523c
00000040: 6615 2bbd 2d34 ddbc c509 babd 6342 7d3b
00000050: c2d8 983d 5b85 9b3d d389 623d f08f e33b
00000060: 8784 023e 9b3c dd3d 3348 50bd 45e0 7fbd
00000070: 034a 4f3d d2ed e93c 664e 843d f56b 98bc
00000080: 11c9 82bd 274a 0e3d 2d44 d8bc bb19 ccbc
00000090: 9807 c3bc c2d9 45bd f414 82bd c3cf 4f3c
000000a0: 393a 3c3c 1bd4 3e3c 2306 b63d 2510 8c3b
000000b0: b1a3 3ebb 854f 18bd 14ee cabc 8c1b 883d
000000c0: 96e1 43bd 149e 9dbc d4cd 203d 5fae 77bd
000000d0: 57dc 04bd eb34 07bd 3d50 063d 631c 68bd
000000e0: 0015 05bb 62f0 1cbd 8456 8e3d d3e1 28bd
000000f0: 4e85 253b 9744 32bd fe5b cabc 6994 5ebd

hidden_bns.0.running_mean f4 [64]
0.7175023 0.7903936 0.41123527 0.43933883 0.5136073 0.6032711 0.74541473 0.3886505
0.80133015 0.52121085 0.56265604 0.8283063 0.53255177 0.58265835 0.7396652 0.42761108
0.4264193 0.70830625 0.45368275 0.6122872 0.73493177 0.65722144 0.6438628 0.49139822
0.6075007 0.71222687 0.56501675 0.5275477 0.45133215 0.4848756 0.67569435 0.7443013
0.55384463 0.5692472 0.4572539 0.46886146 0.429306 0.46876323 0.6359838 0.5949399
0.53621334 0.710605 0.9754427 0.5480869 0.4093675 0.35571218 0.64609796 0.67343724
0.59318596 0.5133187 0.59672487 0.5958242 0.62125677 0.55122805 0.7482929 0.4988255
0.5393136 0.5008374 0.7801157 0.50916237 0.4929818 0.7073211 0.47971123 0.6778349
00000000: 3bae 373f 3c57 4a3f 6e8d d23e 05f1 e03e
00000010: c57b 033f fa6f 1a3f 80d3 3e3f 33fd c63e
00000020: f923 4d3f 136e 053f 3a0a 103f e20b 543f
00000030: 5055 083f 1929 153f b35a 3d3f d7ef da3e
00000040: a153 da3e 8f53 353f 1b49 e83e dbbe 1c3f
00000050: 7d24 3c3f aa3f 283f 31d4 243f 8c98 fb3e
00000060: 2a85 1b3f 8054 363f f0a4 103f 5e0d 073f
00000070: 0215 e73e 9d41 f83e 4efa 2c3f 888a 3e3f
00000080: c3c8 0d3f 2fba 113f 2f1d ea3e 9c0e f03e
00000090: ffcd db3e bc01 f03e d6cf 223f fb4d 183f
000000a0: 4745 093f 36ea 353f 9db6 793f 6c4f 0c3f
000000b0: 9e98 d13e e81f b63e ad66 253f 6266 2c3f
000000c0: 09db 173f db68 033f f6c2 183f ef87 183f
000000d0: af0a 1f3f 481d 0d3f 2090 3f3f 0e66 ff3e
000000e0: 7510 0a3f e136 003f aab5 473f 7758 023f
000000f0: 1c68 fc3e ff12 353f b69c f53e 9786 2d3f

hidden_bns.0.running_var f4 [64]
1.1595744 1.3911213 0.4634488 0.7001187 0.45408002 1.1044672 2.1710658 0.46639532
1.7144648 1.0868095 1.1885896 1.8378078 0.8188105 0.89154994 1.479678 0.73110276
0.4898616 0.9213961 0.71319 0.784881 0.9199643 1.0374178 0.7430584 0.6937635
1.1168857 0.9507944 1.0018623 0.57000375 0.7180342 0.8019931 0.8762628 1.234366
1.2128792 1.0503577 0.75923795 0.52736384 0.34261996 0.5989223 1.066832 0.88664246
0.7302937 1.0968081 2.498056 0.83470935 0.57775027 0.3439478 0.86195403 1.197493
1.1000978 0.8542024 0.95497453 0.628183 0.9721823 0.9530195 0.980257 0.9017692
0.7592849 0.60926867 1.1929559 0.9538166 0.7097267 1.0628023 0.58155036 1.3206732
00000000: ef6c 943f 4310 b23f 2949 ed3e fb3a 333f
00000010: 2d7d e83e 2e5f 8d3f bef2 0a40 5ecb ee3e
00000020: 9573 db3f 931c 8b3f b423 983f 493d eb3f
00000030: 919d 513f 9e3c 643f 1766 bd3f 8d29 3b3f
00000040: 24cf fa3e 9de0 6b3f 9f93 363f f6ed 483f
00000050: c882 6b3f 1bca 843f 1339 3e3f 7c9a 313f
00000060: 1cf6 8e3f 4367 733f 063d 803f c4eb 113f
00000070: 17d1 373f 6b4f 4d3f c252 603f b5ff 9d3f
00000080: a03f 9b3f 1f72 863f 6b5d 423f 5101 073f
00000090: e26b af3e f952 193f f38d 883f 00fb 623f
000000a0: 87f4 3a3f 3564 8c3f 26e0 1f40 83af 553f
000000b0: 71e7 133f ed19 b03e 05a9 5c3f 7347 993f
000000c0: 01d0 8c3f 02ad 5a3f 3679 743f 9ad0 203f
000000d0: f0e0 783f 16f9 733f 1ff2 7a3f 59da 663f
000000e0: 7f60 423f 08f9 1b3f c7b2 983f 532d 743f
000000f0: a6b0 353f e809 883f 7ce0 143f d20b a93f

hidden_bns.1.weight f4 [32]
0.988264 0.899134 0.89955276 0.87159693 0.9357952 0.9939792 0.978116 0.99191046
0.84803104 1.057053 0.9575174 0.8671257 0.85147583 0.8928309 0.8353961 0.9625142
0.89339274 0.95438904 0.87270373 1.012916 0.9694645 0.95385104 0.97825783 0.91028523
0.9558235 0.86294633 0.9001081 1.0436381 1.0478538 0.7192144 0.9723529 1.0630046
00000000: dffe 7c3f a52d 663f 1749 663f fa20 5f3f
00000010: 4690 6f3f 6c75 7e3f cf65 7a3f d8ed 7d3f
00000020: 9018 593f 834d 873f dc1f 753f f3fb 5d3f
00000030: 52fa 593f 9190 643f 85dc 553f 5567 763f
00000040: 63b5 643f d752 743f 8369 5f3f 3ba7 813f
00000050: d32e 783f 952f 743f 1b6f 7a3f 7408 693f
00000060: d9b0 743f 0dea 5c3f 7c6d 663f ef95 853f
00000070: 1320 863f 6f1e 383f 1fec 783f 8910 883f

hidden_bns.1.bias f4 [32]
-0.060846232 0.10970808 0.090243965 0.11788335 0.09846184 -0.07443816 -0.058891565 -0.09866359
0.11197105 -0.067170374 -0.074914485 0.09684721 0.099394456 0.114952065 0.1303861 -0.075811565
0.10388695 0.12247349 0.11693546 -0.09412545 -0.03736861 0.12111627 0.12367226 -0.104970776
0.113165505 -0.09763925 0.13504864 -0.14693509 -0.069373995 -0.095758 -0.054916617 -0.06648678
00000000: e639 79bd a1ae e03d d4d1 b83d d36c f13d
00000010: 5ca6 c93d 0973 98bd 4838 71bd 2310 cabd
00000020: 1451 e53d 9f90 89bd c46c 99bd d457 c63d
00000030: 528f cb3d fd6b eb3d ef83 053e 1843 9bbd
00000040: aec2 d43d 62d3 fa3d dc7b ef3d d8c4 c0bd
00000050: d40f 19bd cf0b f83d e247 fd3d ebfa d6bd
00000060: 51c3 e73d 16f7 c7bd 314a 0a3e 2776 16be
00000070: f413 8ebd c51c c4bd 3ff0 60bd 392a 88bd

hidden_bns.1.running_mean f4 [32]
0.8431574 0.6298992 0.5910085 0.7714255 0.78884137 0.8287713 0.9068129 0.8250657
0.50971633 0.9779027 0.9273177 0.43497387 0.71426344 0.8327966 0.44301015 0.83038473
0.65592664 0.7500467 0.8262519 0.85748863 1.1542964 0.7235582 0.76477766 0.6598965
0.8911491 0.6226513 0.7145152 0.9273993 1.035622 0.48689327 0.86273456 1.016014
00000000: 2ad9 573f 1341 213f 554c 173f 247c 453f
00000010: 82f1 493f 5b2a 543f e424 683f 8137 533f
00000020: c57c 023f d557 7a3f b164 6d3f e5b4 de3e
00000030: f8d9 363f 2832 553f 3ad2 e23e 1894 543f
00000040: cfea 273f 0f03 403f 3f85 533f 6084 5b3f
00000050: fcbf 933f 1c3b 393f 78c8 433f faee 283f
00000060: 5922 643f 1366 1f3f 78ea 363f 0a6a 6d3f
00000070: 438f 843f 134a f93e 2cdc 5c3f bf0c 823f

hidden_bns.1.running_var f4 [32]
1.2297894 1.0773723 0.76652557 1.0925963 1.4335725 1.6211551 1.919635 1.0848664
0.8273084 1.3814089 1.4708891 0.5490446 0.9429125 1.5766929 0.6021667 1.1009152
0.8877388 1.3669603 1.702067 1.07896 1.8935498 0.9529269 1.1080974 0.9054312
1.234226 0.80275935 0.9809348 1.1308429 2.6976876 0.52191424 1.7245823 1.5291263
00000000: bd69 9d3f 56e7 893f 053b 443f 32da 8b3f
00000010: 4e7f b73f 0382 cf3f 9ab6 f53f e7dc 8a3f
00000020: 7cca 533f 02d2 b03f 1846 bc3f 308e 0c3f
00000030: b762 713f 13d1 c93f 9927 1a3f caea 8c3f
00000040: da42 633f 8ef8 ae3f 55dd d93f 5c1b 8a3f
00000050: d75f f23f 04f3 733f 23d6 8d3f 57ca 673f
00000060: 1efb 9d3f a381 4d3f 8b1e 7b3f 76bf 903f
00000070: eaa6 2c40 2c9c 053f 1dbf dc3f 69ba c33f

output_layer.weight f4 [2, 32]
-0.36772183 0.34296885 -0.019410685 0.036963735 0.44069946 -0.27301732 -0.14878587 -0.43544614
0.23979157 -0.5067365 -0.29785267 -0.09581108 0.017917866 0.2871013 -0.027289212 -0.10573595
0.15952644 0.28257206 0.33536616 0.15505426 -0.3250929 0.33299166 0.37919837 -0.5266498
0.23994228 -0.24990125 0.2542987 -0.044769786 -0.17920214 -0.14362621 -0.29350087 -0.4290062
0.16251664 0.023723386 -0.31389636 -0.3278089 0.050888397 0.2508132 0.3906615 -0.11261868
-0.12737124 -0.06512737 0.17257413 -0.36988148 -0.3223384 -0.099292874 -0.26328343 0.29928017
-0.16670617 -0.060854282 -0.22710623 0.49011213 0.31726202 -0.022186453 0.031986956 -0.24337588
-0.33102995 -0.022400552 -0.070103765 0.2971695 0.26541418 0.04347816 0.21866374 0.061387286
00000000: 0946 bcbe 9d99 af3e 2803 9fbc 4967 173d
00000010: 5ca3 e13e edc8 8bbe 535b 18be ccf2 debe
00000020: ec8b 753e 7cb9 01bf 2580 98be 9938 c4bd
00000030: 7dc8 923c f1fe 923e a08d dfbc 178c d8bd
00000040: e65a 233e 49ad 903e 1db5 ab3e 8bc6 1e3e
00000050: 9472 a6be e27d aa3e 4a26 c23e 85d2 06bf
00000060: 6eb3 753e 1de6 7fbe 7033 823e 8660 37bd
00000070: c480 37be c012 13be bf45 96be b3a6 dbbe
00000080: c36a 263e 8c57 c23c 06b7 a0be 91d6 a7be
00000090: 5a70 503d 966a 803e c904 c83e 9fa4 e6bd
000000a0: 9b6d 02be 8061 85bd 46b7 303e 1b61 bdbe
000000b0: 8a09 a5be 105a cbbd 16cd 86be 403b 993e
000000c0: 06b5 2abe 5742 79bd 898e 68be faef fa3e
000000d0: 2b70 a23e 5dc0 b5bc c104 033d 8737 79be
000000e0: c27c a9be 5d81 b7bc 9092 8fbd 9a26 983e
000000f0: 5ee4 873e 2816 323d 63e9 5f3e 3c71 7b3d

output_layer.bias f4 [2]
0.12568372 -0.12568519
00000000: 3cb3 003e 9eb3 00be
