backend/pytorch_model_weights.pth (torch, 80116 bytes, 20 tensors)

input_layer.weight f4 [128, 51]
00000000: ccba 483c 4f3a 013e 4835 473e e0f1 1280
00000010: f9ec d43d 335c 1900 74a0 d13d ecda 4abd
00000020: 9e2a b5bc e2e7 963d 4703 febb 6a46 3e3e
00000030: 3d9c cd3d 8d50 20be aa8b c73d 0b0a 52be
00000040: 0b35 c2bd 9af8 ad3d c40f 523b 4cf0 153e
00000050: 9219 d73d 4e0b 7fbd 600e 453e 8c91 14be
00000060: 115d c5bb c989 fe3c b2af c03d 5161 6a3e
00000070: 1c5b 273e 12ad b6bd 417b 163e 8108 0f3e
00000080: 5979 cb3d 32b7 e13d 59e0 86bc c811 b5bd
00000090: d492 ea3b 9ab5 bc3c dfec a7bd 0ece 8abd
000000a0: 4542 9339 9b0a 29be 4fa5 dbbd 302b a83d
000000b0: 6c55 0cbd b6f0 713d 8c2b d13d 4675 b63d
000000c0: 4142 0a3e bbcd 173e 1be9 d73d 0a4a 8bbd
000000d0: 2c7b 093e 32d0 c8bd 9660 0200 b216 c8bd
000000e0: 8b46 6580 d775 963d fef3 a23d 79f4 923d
000000f0: 086b 04be 8c82 fdbd 08cc ea3d eb55 86bc
00000100: a3e7 053e e335 9ebd 7efc 403e 6a0f 12be
00000110: e3e6 fc3d 9582 f03d 9555 e8bd a837 383e
00000120: d74a 103e 1e66 34be 5cf2 96bd 626d 1b3e
00000130: 4a64 a1bd 7b60 11bd 31dc db3d d5c9 083e
00000140: fb41 e5bd 1afd 573d 41ca 203b 4bf8 9b3c
00000150: 5260 8bbd 26a2 1a3e 29b3 653c b0dc 0f3e
00000160: f2ae d73d 4ee3 c83d ccdd 0ebc b53b e53d
00000170: e614 1a3e 230c 423c 1251 bdbc 7fb5 0ebd
00000180: 30cc 01be b1e7 943d b728 10be 082d a1bd
00000190: 27db 253d 80bf 85bd 1164 20be 4e62 053d
000001a0: b0e9 bf3d dfa1 2600 2b90 b6bc a1e2 1b00
000001b0: 8000 623d 74b6 c73d 606f 593d 9854 303e
000001c0: b342 d8bc 77bd aebd 1d29 fbbb 7d24 663d
000001d0: 7123 cebd 791d 08be 79c9 65bd c002 913d
000001e0: fb04 6a3d 3e28 adbd a5fb 083e 07cc 1abe
000001f0: a7c3 b63c 88a0 ccbc 8a41 70bc af77 083e
00000200: 3702 f8bd 7942 1c3d b7eb 643c 43c1 3bbe
00000210: 04e7 6f3e cdf9 a0bd fcd1 9bba b971 2f3e
00000220: a38d 19be c4d2 273e 19a6 1bbd 2b3d 84be
00000230: d686 4c3c 682e 08bd b52a 11be 267b ebbd
00000240: 225e babb 8a50 ce3d af43 22bc 312b 2b3d
00000250: 1470 e33c b63a 11be 5692 b33d bea7 083d
00000260: f952 0cbd 54e0 eeba 6ecc 0c3e 36e5 a9bd
00000270: cac5 3d00 7dd7 8bba acd9 2900 d83d 05be
00000280: a801 213d 3f8b df3b d8a5 fbbd 0ad3 f3bc
00000290: edd4 16bd aaf4 8d3d be65 f5ba 54bc 2dbd
000002a0: 2522 b7bd 1219 35bd 8ea3 cc3d cebe 223e
000002b0: bb36 82bd 3c5b 0abe ae13 2abd 2348 1cbe
000002c0: 5f3e 13be 1f55 393e 7947 973d c911 5a3e
000002d0: 981a e4bb 028e 2cbe 4d42 513e c905 3abe
000002e0: 4171 19be a060 14be c072 8e3d 1080 66bc
000002f0: 879d 91bd bf96 173e 1709 58bd 8cfb 263e
00000300: 8b59 d63d ae38 123d 9083 283e ab14 8c3d
00000310: bd2d 283d d794 bfbc 2f8d e6bd 9613 dabd
00000320: 9e86 933d 671f 0bbe 75fd d6bb 336f 39bc
00000330: bb13 8f3d 6c55 00be f985 4b3e ca87 5880
00000340: 9849 ae3d 3437 7980 0c9f 2abe 4993 daba
00000350: a472 c5bd a718 bdbd 269b d73d 97d9 d2bc
00000360: f511 0a3e 2253 9ebd bbbd 9ebd d56c febd
00000370: ba16 a13d e06d 923d 3794 983d 562a 313e
00000380: c36f bb3d d1a4 28be 687e e6bc fe06 f03d
00000390: 30fb 323e 9563 883d 6f67 11be f4b9 d4bd
000003a0: 8eb0 513e 2800 a6bc d936 a23d 7f07 19bd
000003b0: fa59 ae3b e271 c63d 900f 003e b941 e4bd
000003c0: ce9b 283d caef a23c 7e87 75bd 7574 c63c
000003d0: 6088 d83c 8c52 1f3e 6a5e b4bd 757e 3a3e
000003e0: 1b04 aa3c 0120 6f3d 6b2b dcbd 3024 2a3e
000003f0: 4b8f 7b3e aaaf 0f3d 56d2 dd3b edd7 293d
0.012251567 0.12619899 0.19453919 -1.739807e-39 0.103967614 2.328962e-39 0.10235682 -0.049525186
-0.022115048 0.07368447 -0.0077518555 0.18581548 0.10039566 -0.15655728 0.09743436 -0.20511644
-0.094827734 0.084946826 0.0032052854 0.14642447 0.10502924 -0.06226664 0.19243765 -0.14508647
-0.0060230573 0.03107156 0.09408511 0.22888686 0.16343349 -0.08919729 0.14695455 0.13968088
0.099352546 0.1102127 -0.0164644 -0.08841282 0.0071586166 0.023035813 -0.081994765 -0.06777583
0.000280874 -0.16507952 -0.107248895 0.08211362 -0.034261152 0.05906745 0.10213384 0.08909087
0.13501836 0.14824574 0.10542508 -0.06801231 0.13425893 -0.09805335 2.1832e-40 -0.09769954
-9.300691e-39 0.07346695 0.07956694 0.07175536 -0.12931454 -0.123784155 0.11464697 -0.01639839
0.13076644 -0.07725122 0.18846318 -0.14263692 0.12348726 0.117436565 -0.113444485 0.17989981
0.14091049 -0.1761708 -0.07370445 0.15178445 -0.07880457 -0.0354924 0.107353576 0.13358243
-0.111942254 0.05273161 0.0024534615 0.019039294 -0.06805481 0.15100917 0.014019766 0.1404903
0.10531415 0.0980898 -0.008719873 0.11193029 0.15047035 0.011843714 -0.023109946 -0.034841057
-0.12675548 0.07270754 -0.14078031 -0.07869917 0.040492203 -0.06530666 -0.15663172 0.032564454
0.09370744 3.547817e-39 -0.022285542 2.560858e-39 0.055176258 0.09751597 0.05308473 0.1721977
-0.026398992 -0.08532231 -0.007664813 0.05618714 -0.10065354 -0.13292493 -0.056100342 0.07080603
0.057133656 -0.08454941 0.13377245 -0.15116893 0.022310091 -0.024978891 -0.014664063 0.13326906
-0.121097974 0.03814933 0.013972214 -0.18335442 0.23427969 -0.07860146 -0.0011888142 0.17133226
-0.14995436 0.16388994 -0.0380002 -0.25827917 0.012483319 -0.03324738 -0.14176448 -0.11498098
-0.005687491 0.10073955 -0.009903832 0.041789237 0.027763404 -0.14182553 0.08768146 0.033363096
-0.034258816 -0.0018224814 0.13749859 -0.08295672 5.672919e-39 -0.0010669079 3.843341e-39 -0.13011873
0.03930822 0.0068220193 -0.122874916 -0.029763717 -0.036824156 0.069314316 -0.0018722338 -0.04241593
-0.089420594 -0.044213362 0.09992133 0.15893099 -0.06358095 -0.13511366 -0.041522674 -0.15261893
-0.14379261 0.18098877 0.07386679 0.21295847 -0.006961178 -0.16851047 0.20435448 -0.1816627
-0.14984609 -0.14489985 0.069554806 -0.014068618 -0.07110124 0.14803599 -0.052743044 0.16306895
0.10466298 0.035698585 0.16456437 0.068398796 0.041059244 -0.023386402 -0.112573974 -0.10648267
0.072034106 -0.13586198 -0.006560976 -0.011318016 0.06986185 -0.12532586 0.19875325 -8.130236e-39
0.08510131 -1.1131898e-38 -0.16662234 -0.0016675974 -0.096410066 -0.09233218 0.10527639 -0.02573852
0.13483413 -0.077307 -0.07751032 -0.12423102 0.07865663 0.07149863 0.07450145 0.17301306
0.09152176 -0.16469122 -0.028136447 0.11720084 0.17478633 0.06659619 -0.14199613 -0.1038703
0.20477507 -0.020263746 0.079206176 -0.037360664 0.0053207846 0.0968969 0.12505937 -0.11145348
0.041164212 0.019889731 -0.05994367 0.024225453 0.026432216 0.15558833 -0.088070706 0.18212302
0.02075391 0.05838013 -0.10750469 0.16615367 0.2456638 0.035079636 0.0067694588 0.04146569

input_layer.bias f4 [128]
00000000: 5cd5 a73a 5285 11bd 21cb b83c 03b5 01be
00000010: 9819 78bd 22f9 9cbd fd39 e03c 61d4 ee3b
00000020: c13c c23c dd98 4b3c 721e e0bd 827d a23c
00000030: 4d5e 813c a80b 82bc 07bd 15bd 92cf a4bd
00000040: c653 23bd 3c76 06bd 2373 8fbd 5862 f6bd
00000050: bd53 03bd 02a8 18bd ffe3 473d 3d0a 81bd
00000060: 3983 bd3a 024d d8ba 922f 043d 144a efbc
00000070: 1de8 12bd 9371 28bd 82b5 9c3b d019 76bb
00000080: 93e1 90bd 7175 1cbd db07 513d bfc1 373b
00000090: f096 f83c cf5b 19bc ae65 15bc 4539 3ebc
000000a0: 37ea 6dba 7f0b c7bd 5147 d53b b3ae 17bb
000000b0: ed2a 4f3b d268 c1bd bc74 b9bc 25bd d7bc
000000c0: 94e0 1a3c ec5e e73b 383a c1bd 6285 153c
000000d0: 2741 3bbd 7d8c 08bd 5b44 313d 51b9 db3c
000000e0: 3263 463a e84a fcbc 218a 273c 4325 e2bd
000000f0: 5b68 303c 811a 843b a33e 84bc 4dcb 2ebd
00000100: fb19 36bc c720 883c 44f2 55bd a563 fc3c
00000110: 3e76 1fbe d8ec d4bb 27a1 a4bb f63f ab3c
00000120: 37f9 463c 1175 60bd 367b 563c 7645 98bc
00000130: 696d f9bc 072c eabc 1d31 bfba cebf 0fbe
00000140: 8505 bcbb c64a c8bb a540 dfbc c819 0d3d
00000150: 5ab1 07be 2772 71bd 394f 553c 48f3 41bc
00000160: 0f6b 33bd 6a11 223d 9e9b e7bc cb83 d5bc
00000170: 8bc5 173d 4be7 6b3c b3b4 b33c c2eb 04be
00000180: 8e6d 723c fbed 293d f038 1bbd 718a 6dbd
00000190: 21bb 3bbc b572 d53c e53d 01bd add8 65bd
000001a0: 85be 81bd 944e 07be ac0c 11bc a900 bcbc
000001b0: 07dc f93a 84e6 0d38 5550 a83c 239f aa3b
000001c0: 71eb 0bbd b4e9 bebb 555b 4d3c be11 efbb
000001d0: 7ced d4bc cfc7 e7bb 3fe4 f83b b4ad 4ebd
000001e0: 0fb4 ecbb 47db e8bd 5ebd 843d b493 823c
000001f0: e167 353b 7adf b2bd 4868 723d 970c 0dbd
0.0012804675 -0.035527535 0.022557797 -0.12666707 -0.060571283 -0.07664706 0.027371401 0.007288501
0.02371061 0.012426582 -0.10943307 0.019835237 0.015792036 -0.015874699 -0.036557224 -0.080474034
-0.039874814 -0.0328276 -0.070043825 -0.12030476 -0.03206228 -0.0372696 0.04880142 -0.06300781
0.0014458663 -0.0016502442 0.03227193 -0.029210128 -0.03586589 -0.041123938 0.0047823796 -0.0037552007
-0.07074275 -0.03819794 0.051032882 0.0028039066 0.03034541 -0.009360268 -0.009118481 -0.011610334
-0.0009075733 -0.097189896 0.0065087457 -0.00231449 0.003161128 -0.09443821 -0.022638671 -0.026335308
0.009452958 0.007060876 -0.094349325 0.009126039 -0.04571643 -0.033337105 0.04327808 0.026821764
0.0007567882 -0.030797437 0.010225804 -0.11042263 0.010767068 0.00403148 -0.016143149 -0.04267435
-0.011114593 0.016617192 -0.052232996 0.030809233 -0.1557245 -0.0064979605 -0.0050240937 0.020904522
0.012144378 -0.054799143 0.013090899 -0.018587809 -0.030447679 -0.028585447 -0.001458678 -0.14038011
-0.0057379627 -0.0061124293 -0.027252505 0.034448415 -0.13251248 -0.058946755 0.013019376 -0.011837788
-0.04380327 0.03956739 -0.028272446 -0.02606382 0.037053626 0.014398406 0.02193675 -0.1298056
0.014796628 0.04148672 -0.037896097 -0.057993356 -0.011458189 0.026055673 -0.031553168 -0.05611484
-0.06335167 -0.13213569 -0.008853119 -0.022949534 0.0019062766 3.3831704e-05 0.020546118 0.005206959
-0.03416008 -0.0058261994 0.012533982 -0.007295816 -0.025992148 -0.0070733796 0.0075955684 -0.050458625
-0.007223613 -0.11369949 0.064814314 0.015939571 0.0027680325 -0.08734031 0.05918148 -0.034435835

input_bn.weight f4 [128]
00000000: fb5f 743f 2169 6f3f 356d 8a3f 6b88 863f
00000010: 4fd1 753f 2069 733f b24e 743f fbee 673f
00000020: 1432 7b3f e680 6c3f b18b 843f 887e 6d3f
00000030: d91c 6a3f f0da 713f 89c7 7d3f 0d60 803f
00000040: 518f 6a3f 8256 743f cca9 643f 8a37 833f
00000050: 25b8 823f 356e 7c3f 1bba 5f3f 6768 803f
00000060: 3032 603f fcb1 6b3f 3671 693f cee8 7f3f
00000070: c438 713f fa32 703f 0a8d 7b3f 59b8 733f
00000080: ec17 763f 8b84 7f3f a860 773f 184b 613f
00000090: 68d4 683f fd21 6b3f abfb 703f 16c8 693f
000000a0: 5a1d 623f afdf 7c3f ceba 823f d2c9 7b3f
000000b0: 1d9e 643f 9f68 633f f376 653f ddd5 7c3f
000000c0: db25 713f e6c8 6c3f c2ec 853f 50ad 703f
000000d0: db2c 8b3f d019 603f b04d 623f a77d 6b3f
000000e0: 5f9b 773f eed6 673f 54d0 733f cabf 743f
000000f0: 11a5 783f 7194 7c3f 6883 6b3f 0e10 773f
00000100: d795 633f d6ca 6f3f 2508 703f be97 703f
00000110: 7d44 813f 0ee7 743f ea3a 733f 36a1 7a3f
00000120: 5407 6a3f 3d55 833f 6f92 793f 6aac 663f
00000130: 3d52 773f 3bd9 693f 6d61 663f e022 863f
00000140: de10 6e3f 4dac 713f 16bb 6a3f c50f 673f
00000150: d79a 873f dd57 843f ab9f 6d3f a01d 793f
00000160: f2fd 653f 6240 5c3f 8b62 733f 2c79 693f
00000170: b10d 733f 52d6 6c3f 438e 643f 05c7 723f
00000180: 8ace 813f ef3d 643f ec7a 763f 93a5 853f
00000190: dade 6a3f 24e9 683f 7024 6d3f b48b 723f
000001a0: 6113 823f e962 823f a441 6a3f be71 6f3f
000001b0: c609 7c3f 672f 693f fbb3 6a3f e23d 6e3f
000001c0: fe2f 6b3f 26db 6c3f 988f 713f 27e5 693f
000001d0: 0c7a 853f d048 703f a3ef 6d3f 570e 7b3f
000001e0: 4841 6e3f 6c5d 773f 991e 683f 44bb 6c3f
000001f0: 5a38 703f 5ea9 7f3f ce7c 743f c4c7 823f
0.95458955 0.9351979 1.0814577 1.0510381 0.96022505 0.95082283 0.9543258 0.9059903
0.9812329 0.92384183 1.035513 0.92771196 0.9145027 0.944747 0.9913259 1.0029312
0.91624933 0.954445 0.8932159 1.0251324 1.0212446 0.9860566 0.8739335 1.0031861
0.8757658 0.9206846 0.9118837 0.99964607 0.9422724 0.93827784 0.98262084 0.9520317
0.9613025 0.9981162 0.9663186 0.8800521 0.90949106 0.91848737 0.94134015 0.9132093
0.88326037 0.98778814 1.0213258 0.9835483 0.8930376 0.88831514 0.8963463 0.9876383
0.9419839 0.92494047 1.0462878 0.94014454 1.0873064 0.87539387 0.8839979 0.91988605
0.9672145 0.9056233 0.9523976 0.95605147 0.9712687 0.98664004 0.91997385 0.9650887
0.8890051 0.9366888 0.9376243 0.9398154 1.0099026 0.9566506 0.9501177 0.9790224
0.9141743 1.0260388 0.97489065 0.90106833 0.9660986 0.9134709 0.8999241 1.0479393
0.9299449 0.94403535 0.9169172 0.9025844 1.0594128 1.0339314 0.9282176 0.9731083
0.89840615 0.8603574 0.9507224 0.9120052 0.94942766 0.92514527 0.89279574 0.9483493
1.0141156 0.89157003 0.96281314 1.0441154 0.91746294 0.90980744 0.92633724 0.9474442
1.0162164 1.0186435 0.9150641 0.9353293 0.98452413 0.91087955 0.9168088 0.93063176
0.91870105 0.92521894 0.9435973 0.91365284 1.0427871 0.93861103 0.9294378 0.98068756
0.9306836 0.96626925 0.9067169 0.92473245 0.93835986 0.9986781 0.95502937 1.0217214

input_bn.bias f4 [128]
00000000: 0a38 e43a 93b3 5ebd d9c6 803c 4f3e f0bc
00000010: 3b70 333d 253b f8bb 1d96 9f3b 6a3e 1dbc
00000020: 669f ce3d 4246 933c 40f2 07bd 01ed 3e3d
00000030: 16fd 113d 92a3 01bd 39ab 3cbc a8f6 88bc
00000040: 8612 48bc 88be 10bd 0559 dbbb af9d 503d
00000050: 039d ea3b ec58 a83c bf75 e7ba 1b93 aebc
00000060: 2b98 1cbd 99bd ac3c 0bfe 15bd 8a64 88bc
00000070: 3d76 0c3d c09f 673b c52f 80bc dc3b 72bc
00000080: a57f a23d 7562 9fbc 9440 343c 5f63 943d
00000090: 81aa a3bc caaf 55bc e2fc 373d ac0b b0bd
000000a0: 9419 3c3d 5da4 8f3d eeac 843d 8841 6e3c
000000b0: ff2e 1f3c 899b 1bbd d7cc d13c 296b a0bc
000000c0: dcbf 04bb 4169 90bc 5abd bc3c edf6 cc3a
000000d0: 5643 883c 6cd4 cd3c 7a07 a73a a06a 683d
000000e0: 2c4a 1cbd 65c3 a53c 3613 1e3d 5aa6 473c
000000f0: 0c5e 783a 9015 d8bc 308c 55bc 17ad af3c
00000100: c6e1 55bc d5da 06bc 0603 693d eac9 9a3c
00000110: 9fe4 f23c 8bf0 a6bc 6146 3a3d 99c8 d2bc
00000120: 2d56 b3bb aa8d 943b 553e 183d 7773 653d
00000130: ce5f fcbb 6b3c 313d 939d 253c 714d 803c
00000140: 65d5 513c b28e 12bc d2f6 9dbc 7809 a13c
00000150: 7fb9 eab9 35dc 5c3c d990 9bbc cc49 d13c
00000160: 5a22 bcbc 60ef 8fbb b5a7 7abd 9d94 b0bc
00000170: d166 e03d 6cc3 afba 14a7 253d f347 36bd
00000180: b8ce c83d 9f14 20bd 2c27 283b 7a02 08bd
00000190: 47b1 6f3c 13dd 6ebd 775c 90bc d754 afbc
000001a0: 6afd e83c 4726 fa3c 8968 23bd 8abc 2f3a
000001b0: 908a 123d ed8a 753c f1e7 1bbd 33bc 0bbd
000001c0: ebea 4e3c 8e45 02bd f843 2cbb 18e7 d03c
000001d0: c5cf a23c ea2a 153d 1374 b63b d82f 6abb
000001e0: abb5 14bb 5852 54bd f263 43bd 8980 a03b
000001f0: 4787 673d ee5a 2ebd a5ff 173c 6ab4 ea3d
0.001741172 -0.054370474 0.015719818 -0.029326586 0.043808203 -0.00757541 0.00487019 -0.0095974
0.100889966 0.017977837 -0.033190012 0.046612743 0.035641752 -0.031650133 -0.011515432 -0.016719177
-0.012211448 -0.035337955 -0.0066939616 0.05093163 0.0071598305 0.020550214 -0.0017658992 -0.02131038
-0.038231056 0.021086501 -0.036619227 -0.016649503 0.03429245 0.003534302 -0.015647778 -0.014784779
0.079345025 -0.019456128 0.011001725 0.07245516 -0.019978764 -0.0130424 0.044918902 -0.08595976
0.04592283 0.07013772 0.06478296 0.014541991 0.009715795 -0.037990127 0.02561037 -0.019582348
-0.0020255959 -0.017628314 0.023039509 0.0015637554 0.01663367 0.025125705 0.0012743317 0.05674231
-0.038156673 0.020234773 0.03859254 0.012185657 0.00094744633 -0.02637747 -0.013033912 0.02144484
-0.013054317 -0.008230885 0.05688765 0.018895108 0.02965003 -0.020378372 0.045477275 -0.025730418
-0.0054729194 0.0045334892 0.03716882 0.05601832 -0.0077018505 0.04327051 0.010108369 0.015661927
0.012807225 -0.008945154 -0.019282732 0.019657835 -0.00044770163 0.013480236 -0.018989967 0.025547884
-0.022965599 -0.0043925494 -0.061195094 -0.02155524 0.10957111 -0.0013409681 0.04044254 -0.04450221
0.098050535 -0.039082166 0.0025658114 -0.033205487 0.014629669 -0.0583163 -0.017622216 -0.02140276
0.02844115 0.03053583 -0.039894614 0.0006703815 0.035776675 0.014986736 -0.038062993 -0.034115028
0.012629251 -0.031804614 -0.002628563 0.02550082 0.019874463 0.03641788 0.0055680363 -0.0035734084
-0.002269129 -0.05183634 -0.047702737 0.004898135 0.056525495 -0.042567186 0.009277259 0.114601925

input_bn.running_mean f4 [128]
00000000: b63c 463e a318 803e 58dc 2c3e a0b8 fd3e
00000010: c97f 083e ca08 7a3e 01b5 d53e 135e cc3e
00000020: 8e1f 633e d1fb ba3e 37f6 c63e 56a2 943e
00000030: 9378 793e 07d8 c83e 280c 233e 839b 8f3e
00000040: 3d80 ca3e d81e 653e 32c0 813e 0dea ae3e
00000050: 44fe 5c3e 9ca6 333e a1b7 cb3e c927 f83d
00000060: cbc3 9f3e d1bf 673e 0295 0c3f 99f4 fb3e
00000070: 5d7c f13e fbea 673e 9613 5d3e bf62 723e
00000080: ba5a 1d3e be5b f33e 994e bd3e 0000 913e
00000090: 89b7 b73e c6bf 4f3e 9f05 403e 8a5e 8e3e
000000a0: 9eb9 613e 6ca1 033e 3cbc 593e 02dd 383e
000000b0: 51c0 773e 3529 d93e 147a b63e 0614 8b3e
000000c0: 248b 6e3e bd70 f33e 9d5f 2b3f e6cc 883e
000000d0: 187e 1b3f ed8a 8c3e 632a 533e fa0a 7f3e
000000e0: 23fe 6b3e 1f12 903e e5cd 6d3e f94e 4e3e
000000f0: 1072 2f3e eeb8 0c3f 2c7e e63e a2b7 053e
00000100: 9068 ba3e 7260 a23e 7ebd 5f3e 9cd8 af3e
00000110: d4fb 1e3e 3234 703e 31d6 b53e 4ffc 163f
00000120: a4f4 5c3e 0757 173e fd94 e03e df4b 5e3e
00000130: c4f0 7e3e 2bda 3e3e a608 683e 04cb 563e
00000140: b788 203f 24f5 c13e 1ca8 083f 6ffb 3a3e
00000150: e697 ca3e 7a2d 2f3f 826c ca3e adf9 223e
00000160: 7201 d23e 0abb c33e 426a 633e 41c8 783e
00000170: 0acb 7a3e b218 873e fcff 5c3e ad53 f03e
00000180: 5ce1 523e ebed 603e 5840 803e 242e 043f
00000190: fa0e 643e 0ceb 3c3e 3d76 063f 22b2 873e
000001a0: 0c90 333e 3e88 593e 5b1c b03e 6a85 6c3e
000001b0: 3d53 8d3e 3041 db3e 2b73 573e 18f6 7b3e
000001c0: 7c1f 5c3e d94c aa3e 1fe6 673e 086d 7a3e
000001d0: 4062 be3e 307a 7f3e 9e9e 523e 2f95 4f3e
000001e0: 4c3a 293e 788c e73e 0ca9 eb3e 0c64 7c3e
000001f0: 3196 aa3e ae1e 093e 63cb 713e 3eda 483e
0.19359097 0.25018796 0.1688093 0.4955492 0.13329996 0.24417415 0.41739658 0.39915523
0.22180006 0.36520246 0.38859722 0.29030102 0.24362402 0.39227316 0.15922606 0.28048334
0.39550963 0.22375047 0.25341946 0.34162942 0.2158137 0.17544025 0.39788535 0.121169634
0.31204066 0.22631766 0.5491487 0.4921005 0.47165194 0.22648232 0.21589503 0.23670481
0.1536664 0.4753093 0.36974028 0.28320312 0.35882214 0.20288 0.18752144 0.27806503
0.22043464 0.12854546 0.21263212 0.18053058 0.24194457 0.4241425 0.35640013 0.27163714
0.23295265 0.4754695 0.6694277 0.26718825 0.6073928 0.27449742 0.20621638 0.24906531
0.23046164 0.28138825 0.23223074 0.20147313 0.17133355 0.5496968 0.45018137 0.13058332
0.364079 0.31714207 0.2184963 0.34344947 0.15525752 0.23457411 0.35514978 0.5897874
0.21577698 0.14779292 0.4386367 0.2170863 0.24896532 0.18637912 0.22659549 0.20975882
0.6270861 0.3788234 0.53381515 0.18259977 0.39569014 0.68428767 0.3953591 0.15915556
0.41016728 0.38228637 0.22208503 0.24295141 0.24491516 0.2638603 0.21582025 0.4693884
0.2059378 0.21965759 0.2504909 0.51632905 0.22271338 0.18449038 0.5252417 0.26503092
0.17535418 0.21243379 0.34396634 0.23097768 0.27602568 0.42823172 0.21040027 0.24605596
0.21496385 0.33261755 0.22646378 0.24455655 0.37184334 0.24948955 0.2056832 0.20271753
0.16526145 0.45224357 0.4602741 0.2464754 0.33317712 0.1339061 0.23612742 0.19614503

input_bn.running_var f4 [128]
00000000: c09b e43d 6e45 223e ddb0 973d 5631 943e
00000010: dc1c 903d 2fda 303e 318e b13e 8193 993e
00000020: be40 143e cde9 ad3e d77c 6b3e a106 403e
00000030: 9f4a 0c3e bb9a 4d3e 7a70 a73d b7e1 073e
00000040: 5c23 943e e4a0 dc3d e3f4 063e 2b77 2e3e
00000050: b459 2d3e cd20 bb3d 4ba4 713e bdbc 463d
00000060: 9c2b bc3e e7c2 123e dd79 ab3e d900 a23e
00000070: cd50 903e 53ae 0a3e fad0 dd3d 0278 143e
00000080: 9da7 923d ee59 af3e 34b5 413e e127 883e
00000090: cd55 813e 4580 e63d c138 f13d dd73 313e
000000a0: 7127 383e 4b4b bd3d 9d93 273e 9fd5 333e
000000b0: 56a0 0e3e 7763 b53e 9a7b 663e 3353 033e
000000c0: 2606 283e bda7 bd3e d3f5 d53e d4d7 c03d
000000d0: e217 983e 70b7 473e 78e4 fb3d 9835 8d3e
000000e0: 0f6c 133e bb93 213e 7b65 353e a261 b53d
000000f0: 4a3a 833d 511a 943e 7e6c 9c3e 958b 783d
00000100: fc3e 483e f8e1 223e c012 ed3d 82f3 f73d
00000110: 2439 a73d 9f7d 083e e0b6 963e 06dd a63e
00000120: e208 373e 352a ea3d 6854 803e 2e86 193e
00000130: 8170 fc3d 95df be3d 4930 203e 7047 dd3d
00000140: 92fc d03e e845 5a3e 1552 c93e c1a3 ee3d
00000150: b15d 1f3e 50b9 9c3e dae2 a63e a973 fb3d
00000160: 137e 813e 5530 783e 6d1a 263e a833 f23d
00000170: fbf2 623e d6e4 3a3e f2ee f63d e994 983e
00000180: c0c9 163e a7ac e13d 4f69 5f3e a4e8 2e3e
00000190: 3b04 0a3e 59cc be3d 0009 8d3e d82b 223e
000001a0: 6053 013e 6c7d f43d 8bb1 703e e28e 113e
000001b0: 952b 303e 6eaa e63e f316 053e 7adb 283e
000001c0: f4ff f93d 875d b73e a6ca 653e dd49 143e
000001d0: b4a9 323e 46ca 6b3e d0b4 df3d eaf5 db3d
000001e0: e86a af3d e335 943e 54d2 4c3e d014 063e
000001f0: 7360 963e cd70 8c3d 01b0 103e 812b d33d
0.111625195 0.15846798 0.07406781 0.2894389 0.070367545 0.1727073 0.34678796 0.2999535
0.14477822 0.33967438 0.22996841 0.18752529 0.1370034 0.20078556 0.0817575 0.13269697
0.28933227 0.10772875 0.13179354 0.17037646 0.1692875 0.09137116 0.23597829 0.04851984
0.3675202 0.14332162 0.33491412 0.31641272 0.28186646 0.13543062 0.10830875 0.14498904
0.07160876 0.34248298 0.1891678 0.26592925 0.25260773 0.11254934 0.11778403 0.17329355
0.17983796 0.092428766 0.16364904 0.17561959 0.13928351 0.35427448 0.22508088 0.12824707
0.16408595 0.37042037 0.41789111 0.09416166 0.2970572 0.1950357 0.12299436 0.2757995
0.1439669 0.15779011 0.17714493 0.088565126 0.06407602 0.28926328 0.30551523 0.06067999
0.19555277 0.15906513 0.11575842 0.12106992 0.081651956 0.1332917 0.29436398 0.32590503
0.17874482 0.114338316 0.25064397 0.14992592 0.12326146 0.09319989 0.1564342 0.10804641
0.40817696 0.2131573 0.39320436 0.11652327 0.15563084 0.30610132 0.3259495 0.1227792
0.252915 0.24237187 0.16221018 0.11826259 0.22163002 0.18251356 0.12057294 0.2980111
0.14725399 0.11019259 0.21817516 0.17080933 0.13478176 0.0931632 0.2754593 0.15837038
0.12629461 0.11937985 0.23505227 0.14214662 0.17204125 0.45051903 0.12997036 0.16489974
0.12207022 0.35813543 0.22440585 0.14481302 0.17447549 0.2302638 0.10923159 0.10740264
0.085653126 0.28947362 0.20002109 0.13093877 0.2937046 0.068574525 0.1412964 0.10311032

hidden_layers.0.weight f4 [64, 128]
00000000: b160 503d 05d8 bdbd b976 9ebd 8679 1fbd
00000010: feb0 0fbe 71bb 0ebb 3500 6e3c 3da4 bfbc
00000020: fab3 5cbe bbfb c9bd 6348 683e 9c24 cdbd
00000030: 041e a4bd 64ae ec3d f754 91bd 2fe3 6a3c
00000040: 7c8a dcbd 5d8e 1abe ee26 9e3c 1227 023e
00000050: 3f8d 21be 1d72 c8bd 6190 823d cea6 0a3e
00000060: 19f5 12bd f328 35be e63d 093e e488 b1bd
00000070: 7d5b ecbc fb51 09be 7ec4 0f3d 9da1 1d3e
00000080: 201d eb3d e1d5 863c 5681 edbd 195d 6e3d
00000090: 2609 b23d e932 b23c 56c7 cdbb 1cdd d8bd
000000a0: a11f b1bd dec4 8b3c 21a3 73bd 6f5e 31be
000000b0: f81c 243e 005f f83d bda5 0a3e db09 df3d
000000c0: 2094 3a3d 6a3e 443e d5d7 143e ac4f 07be
000000d0: 8aa2 44bc 9a32 3c3d 6043 33be 0040 18be
000000e0: e4d4 11be 2441 b2bd 6a41 993d 1cdd e33d
000000f0: 5c6b 1abe 1a35 35bd 9014 4bbc 1c4e 4abd
00000100: 1d67 ca3c 23d8 2d3c d0af 9c3d 9bdd 0dbe
00000110: 26e3 f23d eeed cf3b 3397 87bd a8af 943d
00000120: 4173 f53c d1ca 8c3d a98a f6bc d4ed 86bd
00000130: 4a3c f2bd 1b44 cdbd 3ff8 fbbc a05d 003e
00000140: a62d 70bd fe73 de3d 6848 113d d336 84bd
00000150: e1d9 b93d bfe2 3f3e 56e6 ef3d e421 f7bd
00000160: 825e 9ebc b351 1f3e 1880 123e 7179 0f3e
00000170: 9088 62be 08a8 02be 3987 cfbd c348 0d3e
00000180: 3316 673d c8c1 9fbd cddf 2fbe f997 e33c
00000190: 196f d83c b57c d73d 0499 243d 2375 00bd
000001a0: feb9 17be 9251 32bd 06fe 54bd 5695 da3d
000001b0: 37ff 6dbd e556 7ebd bbad 2abc 5804 863d
000001c0: acef eabd 65a2 f7bc 8f1e 9fbc b693 c3bd
000001d0: f787 053e 7196 3abe 42f7 813c 92ea efbd
000001e0: 3d40 113e bdfa eabd 3675 6fbd 1bc6 0abe
000001f0: 01ca ae3d 4dcd f5bd 4a9b 07be b923 04be
00000200: 1746 eebd fdd3 3e3e cf3a 053e 3184 083e
00000210: f839 93bd 1a38 8dbd c6a7 0bbe 371a 0d3e
00000220: 6a46 083e 60e9 a9bd cb4a 34be 6b28 a43d
00000230: a8d5 90bd 19a6 143d 9e7f 12be 1e3d 17be
00000240: 8604 82bc 4e6c cdbd 6493 fe3d 56fb 28be
00000250: f6b3 593c 94fc 27be c843 d33d 62b6 743d
00000260: 7aa6 a2bd d3af 7b3c d05d 833d f15d 8abd
00000270: 09d7 0b3e 189e 633c 4d7d fd3d c5fb b23d
00000280: 6447 c23d d6a9 84bd f6f3 ccbd 1cd9 703d
00000290: ac0f d63d b182 493c 89a1 2c3d 9ad4 103e
000002a0: f434 98bd cca3 24bd dd3c 2dbd ee5e c33c
000002b0: be62 c6bd a788 22bd 5925 f7bc a2d2 debd
000002c0: 7daf 24bd f2b4 3a3c 5b9b dbbd d97a b4bc
000002d0: 50fb 79be 4ffb 9fbc 7dfd d83d bd93 0ebc
000002e0: 247b 4c3c c910 ddbd fbbb 2abd 9a9c abbc
000002f0: 10ec a2bc f6fa 17be ec58 82bc 99ac 193e
00000300: 5ddb dc3d 9c9b 4f3d 7a47 bd3d 570b 71bc
00000310: 8d43 8ebd b1e3 2f3d 7bb5 893d cf4a 51bd
00000320: 1633 8c3d a96d ce3d c17d 39be fa55 b43c
00000330: 2d58 8c3d 20cf c33d d755 08be c614 65be
00000340: 4f82 2abd be68 ab3d cf07 55be ad9c 92bd
00000350: b932 60be 22d4 7bbe 9fe7 ed3c d41d 143e
00000360: 97e5 80bc 8dba 8e3d fb51 9abd dbe0 c83c
00000370: d5b8 ab3d 4c61 063e 7d21 6e3c 4e82 0dbe
00000380: beca 38bc 5847 cc3c dc4f 863d 4f46 3abe
00000390: 453c 60bd 3bb6 02be f669 0abe 2bdd 16be
000003a0: cd55 013e 5971 06be 083d d0bd 0408 7dbd
000003b0: abd5 a9bc 1cdc 5e3d 7410 3abe 7a15 6ebd
000003c0: 382b dcbb c461 573d 5b1e c5bd 2a4e acbd
000003d0: e7c5 1fbe 1112 4fbd eb57 a33d 70eb 48bd
000003e0: 80d9 46bc 9f1e c3bd 6d6a 5abd aaed d0bd
000003f0: 774f 253d 60e2 e1bd 071e 0b3d 271c e6ba
0.050873462 -0.09269718 -0.07737488 -0.038934253 -0.14032361 -0.0021779204 0.014526417 -0.023393745
-0.2155303 -0.09862467 0.22683863 -0.10016748 -0.080135375 0.115567 -0.07096284 0.014336391
-0.10768601 -0.1509337 0.019305672 0.12710217 -0.15776537 -0.097873904 0.06375194 0.13540193
-0.035878275 -0.17691402 0.13402519 -0.08668688 -0.028852219 -0.1341018 0.0350995 0.15393682
0.114801645 0.016459407 -0.115969345 0.058194254 0.08693151 0.021752791 -0.006279866 -0.10589048
-0.08648611 0.017061647 -0.059481744 -0.1732118 0.16026676 0.12127495 0.13539787 0.10890552
0.04555142 0.19164434 0.14535458 -0.13213986 -0.012001643 0.045946695 -0.1750617 -0.14868164
-0.14241368 -0.08703831 0.0748318 0.11126158 -0.15080017 -0.044240095 -0.012395039 -0.049390897
0.024707371 0.010610613 0.07650721 -0.13854067 0.118597314 0.006345502 -0.06620636 0.07260066
0.029962184 0.06874622 -0.030095415 -0.06588331 -0.118279055 -0.10022756 -0.030758021 0.12535715
-0.058637284 0.108619675 0.035469443 -0.064557694 0.0907476 0.1873884 0.11713855 -0.12067011
-0.019332174 0.1555851 0.14306676 0.1401117 -0.22122407 -0.12759411 -0.101332135 0.13797288
0.056417655 -0.07800633 -0.17175217 0.027782427 0.026420163 0.10521833 0.04018499 -0.03136171
-0.14817044 -0.043534823 -0.052000068 0.10673015 -0.05810472 -0.062094588 -0.010417397 0.06543797
-0.11471495 -0.030228803 -0.019423751 -0.09549658 0.13040148 -0.18221451 0.015864972 -0.117146626
0.14184661 -0.11473606 -0.05846139 -0.13552134 0.08534623 -0.12002049 -0.13242832 -0.12904252
-0.11634462 0.18635555 0.13010715 0.13331677 -0.07188791 -0.06895466 -0.13638219 0.13779531
0.13308111 -0.08296466 -0.17606656 0.080155216 -0.07072002 0.036291216 -0.14306495 -0.14769408
-0.015871298 -0.10030423 0.12430456 -0.16502127 0.013287535 -0.16404945 0.103156626 0.059744246
-0.07941909 0.015361744 0.06414378 -0.06756199 0.13656248 0.013892673 0.12377415 0.087394275
0.09486273 -0.06477706 -0.10007469 0.0588008 0.10452208 0.012299226 0.04214624 0.14143601
-0.07431975 -0.04019527 -0.042294372 0.023848977 -0.09686802 -0.039681103 -0.030169176 -0.10880019
-0.04020642 0.01139568 -0.10722991 -0.022031235 -0.24412274 -0.019529013 0.10595224 -0.008702216
0.012480531 -0.10794217 -0.04168318 -0.020948697 -0.019887954 -0.14841828 -0.015911542 0.15007247
0.10784028 0.05068551 0.09242149 -0.014712176 -0.06946478 0.042941753 0.06724068 -0.051096734
0.06845681 0.1007951 -0.18114378 0.022013653 0.06852756 0.0956099 -0.13313995 -0.22371206
-0.04162818 0.08369587 -0.2080376 -0.0715879 -0.21894349 -0.24592641 0.02904111 0.14464504
-0.015734477 0.069691755 -0.07535168 0.024521282 0.08384863 0.13123053 0.014534351 -0.13819239
-0.011278806 0.024936363 0.06558201 -0.18190883 -0.054744978 -0.12764828 -0.13516983 -0.14732806
0.12630387 -0.13129176 -0.10167891 -0.061775222 -0.020731768 0.05440913 -0.18170339 -0.05812595
-0.0067190193 0.05258347 -0.096249305 -0.08413346 -0.15602838 -0.05055434 0.079757534 -0.049052656
-0.012136817 -0.09527325 -0.05332415 -0.10201581 0.040358987 -0.11029506 0.033964183 -0.0017555997

hidden_layers.0.bias f4 [64]
00000000: f3b3 323d 3de8 2a3d f441 a13d 5880 3e3d
00000010: 1bdc b1bc 8d69 b3bb c9bb 1f3c 1830 913b
00000020: 60e0 92bb 8dd7 683d cbf5 393d 955a 1bbc
00000030: e751 823c 9867 64bc eaac 203d 98b6 b8ba
00000040: c842 b33c b426 9e3c ac47 22bd 5ae6 e4bc
00000050: d2e9 d03b 6774 883d 09eb 143c 21ce fe3c
00000060: d71f 2ebd 5751 c6bc 4ff3 233d 5c01 f0bc
00000070: 05cb 7a3c b667 bf3c 11a3 903c 6da4 453d
00000080: afe4 6abd 0a52 423d 8985 323c 4d31 c1bb
00000090: af07 9e3c 05b2 353d 18ea 9f3c cd37 dbba
000000a0: a61f 713b a6cf 17bd 73d8 013d befd f4bc
000000b0: 1538 a0bc 9ae9 23bc 30ff f03c 66a9 843d
000000c0: 27ed fa3c 2d0f 213d 0a87 703c 5055 87bc
000000d0: b4a8 043d 37c7 953d c884 4a3c 3088 e53c
000000e0: 7308 9e3d 832b 8cbc f61a a83c 374a 6d3d
000000f0: 0a16 40bd 1fe6 89bc 3fa3 c4bc efd1 a83c
0.043628644 0.041725386 0.07873908 0.046509117 -0.0217114 -0.005475229 0.009749361 0.004430782
-0.004482314 0.05684619 0.045400422 -0.009482046 0.015908195 -0.013940714 0.039227404 -0.0014092503
0.02188243 0.019305564 -0.039619133 -0.027941871 0.00637553 0.06662827 0.00908924 0.03110415
-0.042510834 -0.024208708 0.04002696 -0.029297523 0.015307193 0.023364883 0.017655881 0.04825251
-0.057346996 0.04744152 0.010896095 -0.0058957697 0.019290773 0.044359226 0.019520804 -0.0016725004
0.0036792546 -0.037063263 0.031700563 -0.02990615 -0.019557992 -0.010004425 0.029418558 0.06477623
0.030630661 0.039321113 0.014680633 -0.016520172 0.03238745 0.07313388 0.012360759 0.02801904
0.07716455 -0.017110592 0.020520668 0.057932105 -0.046896018 -0.016833363 -0.024003623 0.020607917

hidden_layers.1.weight f4 [32, 64]
00000000: feb7 76be 3e41 483e 1d6d a33d f130 3a3e
00000010: 919e 29be 23a0 1c3e 121a e93d 7327 9cbb
00000020: ea96 143d d8c6 13be 7027 4f3e 7bf7 123e
00000030: 3ca2 123e acab 7d3c f7f3 4cbe 1f55 233e
00000040: 9e31 69be 1e68 313e d3aa 31bd 5c73 2b3d
00000050: a11f 1bbe adfd c5bd 0755 d8bd 1c30 0ebd
00000060: ca77 ac3d 84dd af3d 6033 233e a43d 9ebd
00000070: a4a4 873d 0ff0 3fbd d1ab f6bd c60d 883d
00000080: fb5a bfbd 3b6d 2ebe dac4 5abe 86ce b5bd
00000090: ff17 7c3e 3800 12be 8bb4 c1bd caf5 183d
000000a0: 213e 76be c71c 313e 2a53 523e e409 1bbe
000000b0: 9147 8cbd f089 6e3d 233d 1fbe 1e5c 713e
000000c0: 0f5e a13d 1c61 dd3d 3a7e 75be 887f 05be
000000d0: 8f47 1ebd 5ee4 193e b2ae 81bd 43cc 383e
000000e0: d812 44bb b305 4dbe 0e81 63bc 9fad 273d
000000f0: a4b1 f8bd 9e47 993d 4dd1 de3d 2819 bb3d
00000100: 0878 423d f2bf 9bbd 46d4 463e 7481 2f3e
00000110: 622f ccbb b597 283e 8698 e33d f7b0 2f3e
00000120: 27e7 2abe 6569 8f3d c0da 85b9 c00f 803d
00000130: 5454 8e3c 72f5 8e3d 8db8 afbd e503 ffbd
00000140: 8f85 bbbd 8658 03be 418b 5cbe 61f7 223e
00000150: 3b6c ce3d dfee 94bd d445 05bd 74da 973d
00000160: 4bfe e6bb badb 3dbb 02ea 45be 9215 503d
00000170: 26e6 4abe eb84 edbd d174 293e 9910 f0bd
00000180: 7f62 11be 9ae3 523e d0de e73c 3894 c8bd
00000190: c87f 8f3d 0422 51be 5f00 a53d bfdb 53be
000001a0: ff23 59be 096c e4bd 5692 273e 64b2 573d
000001b0: c76f 43bd 0ba5 43be f295 16bd 5496 183e
000001c0: 3287 3a3e dcbd 173e 91ab 1a3e 9ffa e7bd
000001d0: 497c 203e f77a 753b f3d5 063e a5d9 cb3d
000001e0: 8b4d 803c 186b 423e 2c0b 043e bed8 cabd
000001f0: 8653 b33d 4e39 b03d 056c c63d e945 853e
00000200: bbbd f13d 1f11 12be 26e3 a63c b5ae 8dbe
00000210: ba15 6dbd b024 5bbd ecdb 423c 4f41 2abe
00000220: e277 6abe 05ae 9d3d c3d9 26bc 8226 6b3e
00000230: 3a9f 86be d0ae 46be e5c0 febd cb3c 18bd
00000240: 3234 f03d 4675 5dbe dbe6 fe3d c842 ad3c
00000250: 1bd0 6d3e a1dc b63d 477c 3c3e 04e0 74bd
00000260: 1044 9bbb 9c41 bc3c 3926 a33c 0a5e 8b3d
00000270: d30f 3a3e 61bf fd3c 336c 0fbd 717a b2bb
00000280: 8412 60be 1893 c93d 29b4 62be 8cf8 abbd
00000290: abdf bfbd 5a31 59be 1079 3cbe 97cf 043e
000002a0: cf33 623e d64b 08be b5ac 33bd 3c04 f8bc
000002b0: b593 45be 0380 4abe 01d0 d63d bc23 233d
000002c0: e9f7 0c3e fb2a 073e ad50 863d 7ed3 37bd
000002d0: 991e 013e 3183 e3bd 7caa c4bd 70a1 74bd
000002e0: ddf3 de3d 4751 1ebd 7479 81bd 2254 083e
000002f0: f7fa 403e e74a 7e3d 1974 c43c 3718 26be
00000300: 1bc2 2f3e dad8 18be e167 033e d3d1 ebbd
00000310: 8c84 a23d 9089 3bbe 16ad 22bb fa8d d9bc
00000320: e097 23be 18d5 c7bd c240 1c3d 54e7 013e
00000330: 650e 71bb 2ef5 6dbe 6775 903e 8f32 903d
00000340: d684 12bd af7c 00be 2574 64be 33f2 b3bd
00000350: d78d 893e 716b 023d 9a58 ae3d 577d 2cb8
00000360: d7d3 ec3c 605e 003e f91e 343e 13fc 32be
00000370: 959f b23d d723 3dbe a629 1dbe 9361 e13d
00000380: b3b8 1dbe e881 893d 6567 d03d 96e3 e4ba
00000390: 3e89 62bd 66d0 043e 6004 c33c ecc6 e03d
000003a0: 082f 203e 1dbd 873e 4f42 7abe f4c5 073e
000003b0: 090a 783d 21d7 2b3d e58c ca3d 552b 5ebe
000003c0: a7f3 16be 3194 87bd c88b 36bc 4726 873d
000003d0: e5bb 573e ef6d 05bd d558 0bbe b49b f43c
000003e0: 931f 3bbd 52a4 59be dcfb 32be 98b8 feba
000003f0: 3286 123d eaf2 3ebe fb2c f23d 059c 22be
-0.24093625 0.19556138 0.07979796 0.18182732 -0.16564395 0.15295462 0.11381926 -0.004765445
0.036276735 -0.14431322 0.20229888 0.14352219 0.143197 0.015482824 -0.2001494 0.1595044
-0.22772834 0.17324874 -0.0433758 0.041858062 -0.15148784 -0.096675254 -0.10563093 -0.03471385
0.084212855 0.085871726 0.15937567 -0.07726601 0.066231996 -0.046859797 -0.1204449 0.06643252
-0.09343525 -0.17033856 -0.21364155 -0.08877282 0.24618529 -0.14257896 -0.09458264 0.037343778
-0.24047138 0.17296134 0.20539537 -0.15140492 -0.06849588 0.058237016 -0.15550666 0.23570296
0.078792684 0.10809538 -0.23973933 -0.1303693 -0.038642462 0.15028521 -0.063321486 0.1804667
-0.0029918458 -0.20021705 -0.0138857495 0.040937062 -0.12143257 0.07484363 0.10879765 0.091356575
0.047477752 -0.0760497 0.19416913 0.17139226 -0.0062312344 0.16464122 0.11113076 0.1715735
-0.1668974 0.07002524 -0.00025530718 0.06253004 0.017374195 0.06980409 -0.08580122 -0.12451915
-0.09156334 -0.12826738 -0.21537496 0.1591468 0.10079237 -0.072721235 -0.032537296 0.074147135
-0.007049357 -0.0028970079 -0.19327548 0.05080182 -0.19814357 -0.11597618 0.16548468 -0.11721916
-0.1419773 0.20594636 0.028304487 -0.097938955 0.07006794 -0.20423132 0.080567114 -0.20689295
-0.21205138 -0.111534186 0.16364416 0.05266036 -0.04771402 -0.19105928 -0.036764093 0.14901096
0.18215635 0.1481852 0.1510451 -0.11327099 0.15672411 0.0037457326 0.13167553 0.09953622
0.015661975 0.18986166 0.12894887 -0.099046215 0.08756165 0.0860468 0.09688572 0.260299
0.11803766 -0.14264344 0.020371985 -0.27672353 -0.05788205 -0.053501785 0.011893254 -0.16626476
-0.22897294 0.07699207 -0.010183754 0.22963908 -0.26293355 -0.19402623 -0.124391355 -0.03716735
0.117287055 -0.21626768 0.12446376 0.021150008 0.23223917 0.089288004 0.18406783 -0.05978395
-0.0047383383 0.022980504 0.019915687 0.06805046 0.18170099 0.030975046 -0.035015296 -0.005446725
-0.21882063 0.09842509 -0.22139038 -0.08397016 -0.09368833 -0.21210232 -0.18405557 0.12969814
0.22090076 -0.13310179 -0.043865878 -0.030275457 -0.19294627 -0.19775395 0.10488892 0.039829
0.13766445 0.1319999 0.065583564 -0.04487943 0.12609328 -0.11109007 -0.0960283 -0.05972427
0.10886357 -0.03865173 -0.063219935 0.13313344 0.18845735 0.06208315 0.02398114 -0.16220175
0.17163889 -0.14926472 0.12832595 -0.1151463 0.079354376 -0.18314195 -0.0024822406 -0.026556958
-0.15975904 -0.09757441 0.038147695 0.12685901 -0.0036782261 -0.2323806 0.2821457 0.07040893
-0.035771213 -0.12547563 -0.2230993 -0.0878643 0.26866028 0.031840745 0.08512993 -4.1124727e-05
0.028909607 0.12536001 0.1758994 -0.17478971 0.08721844 -0.18470703 -0.15347919 0.11004939
-0.15402488 0.06714231 0.10175971 -0.0017462845 -0.055306666 0.12970123 0.023805797 0.10975441
0.15642941 0.2651147 -0.24439357 0.13259107 0.060556445 0.04195321 0.09890155 -0.21696217
-0.14741383 -0.06620062 -0.011141725 0.06599098 0.2106777 -0.032575544 -0.13608105 0.029859401
-0.04568441 -0.2125409 -0.17478889 -0.0019433675 0.03577251 -0.18647352 0.118249856 -0.15879829

hidden_layers.1.bias f4 [32]
00000000: 20fd b43d ac46 a2bb 5d4d 2a3c 4966 323d
00000010: 1f17 b33d 3d45 b63d 69b1 a13d 0907 a93d
00000020: a04b 973d d5f2 a63d f2fe 703d d410 8d3b
00000030: 1bdf 5abc e5ef 1d3d 10fb 923d b67a b9bb
00000040: 4bb5 623d 6bfa 513e 3247 c53d 78e8 2f3d
00000050: 2665 813d b894 f9bc 4903 8e3d 4473 833d
00000060: f977 033e f00e a43d 660a e83c 8522 ed3d
00000070: 3422 733d 22f5 d03d 6721 1d3d 7d35 803d
0.08837342 -0.0049522724 0.010394421 0.043554578 0.087446444 0.08899925 0.078951664 0.08253295
0.07387471 0.08151785 0.058836885 0.0043049846 -0.013358857 0.03855886 0.071767926 -0.0056603802
0.055348676 0.20505683 0.0963272 0.04294631 0.06318121 -0.030466422 0.0693422 0.064184695
0.12838735 0.080106616 0.02832527 0.1157885 0.05935879 0.102030054 0.038361933 0.06260202

hidden_bns.0.weight f4 [64]
00000000: 4bd1 743f bdbb 803f 7a10 7e3f af7c 823f
00000010: 2711 653f 5f21 6c3f a404 6c3f 7da0 6c3f
00000020: 95e9 793f 07bb 613f 05c1 6f3f 5d19 673f
00000030: dd97 823f 1b0a 653f b91f 7c3f 5196 703f
00000040: dae0 7a3f 58a2 7b3f 69ad 743f 05b2 753f
00000050: 288f 7b3f 1511 5f3f a6f2 653f dcd8 603f
00000060: 6096 7f3f 065e 773f db24 683f dcae 723f
00000070: 560e 743f a037 7b3f 8a97 833f a036 6e3f
00000080: 675c 883f 3879 603f 96bd 7f3f 1ac1 813f
00000090: af56 743f 6c46 6d3f 89d1 823f b675 5e3f
000000a0: c22c 723f 7a0d 723f 0121 803f c5a0 5e3f
000000b0: a704 7c3f 3920 733f 43f5 743f 2144 6c3f
000000c0: 0f17 7d3f 743c 7b3f 3e43 763f 7c5d 6e3f
000000d0: 6d71 7e3f d07a 613f 2970 713f 2517 803f
000000e0: 9829 773f dd9f 713f 8e52 6f3f 8cd6 703f
000000f0: 5a86 7a3f 795b 733f fd78 633f 2511 623f
0.95631856 1.0057293 0.9924389 1.01943 0.894793 0.9223842 0.9219458 0.92432386
0.9762204 0.88176006 0.936539 0.90273076 1.0202595 0.89468545 0.98485905 0.93979365
0.97999346 0.9829459 0.955771 0.9597476 0.98265314 0.8713544 0.8982338 0.878309
0.9983883 0.96627843 0.90681237 0.94798064 0.95334375 0.9813175 1.0280621 0.930521
1.0653199 0.87684965 0.9989866 1.0137055 0.9544477 0.9268558 1.0220195 0.8689836
0.94599545 0.94551814 1.0010072 0.86964065 0.984446 0.9497104 0.9568674 0.92291456
0.9886331 0.9813912 0.96196353 0.93111396 0.99391824 0.8807802 0.9431177 1.0007063
0.9654784 0.94384557 0.93485343 0.9407737 0.97861254 0.9506145 0.8885649 0.8830741

hidden_bns.0.bias f4 [64]
00000000: 9885 afbc ac8a a43d 0820 f93c e293 a6bc
00000010: e5a0 6fbc 0d4a 8f3d 4f5e 983b d0d5 5ebc
00000020: 219b 7bbc 5908 ac3d f3c7 983d f43d be3c
00000030: b873 313d 3db4 24ba a073 b0bc 5a41 8f3c
00000040: 48ca a6bd 1ea8 ae3d bda8 16bd 492c 25bd
00000050: f855 213d e659 8f3d 9e2a 6a3d 054c 5f3c
00000060: 5f88 8e3c 5c11 dd3b 6262 98bc 9f03 dbbc
00000070: 8722 a83d 8f3f ed3c 655e e83d 55e6 403d
00000080: 3748 3dbd 0dfe ca3b b898 df3c fa1e f2bc
00000090: 6706 633d 5e9d b7bd 971b 2d3d dee3 4f3c
000000a0: d94a 113b af39 a33d 7b9d ce3d 86d8 e23d
000000b0: 7899 ccbc e9d5 46bc 483c 0dbd cd58 8d3d
000000c0: b2e0 81bc 3e63 993d 97b6 563d cca4 fcbc
000000d0: 4101 503c 6117 28bc c15b 743d 0481 923c
000000e0: 18d6 7e3d a679 e7bd e673 4d3d df92 283c
000000f0: d9fa 2f3d 1871 0cbd 12c8 35bd d945 a4bd
-0.021426007 0.08034262 0.030410782 -0.020334188 -0.014625763 0.06996546 0.0046499143 -0.013600782
-0.01535681 0.0840003 0.07460012 0.0232229 0.04332325 -0.0006282961 -0.02153951 0.017487217
-0.08144051 0.085281596 -0.036782015 -0.040325437 0.039388627 0.06999569 0.05716955 0.013628964
0.017399011 0.006746454 -0.0186016 -0.026735125 0.082097106 0.028960971 0.11346129 0.04709466
-0.046211448 0.006194836 0.027294502 -0.029555786 0.055426028 -0.08965562 0.04226264 0.012688605
0.0022169857 0.07969987 0.10088631 0.11076455 -0.024975523 -0.012135961 -0.034481317 0.06901703
-0.015854213 0.07489632 0.052420225 -0.0308403 0.012695611 -0.01025948 0.059657816 0.017883785
0.062215894 -0.113024995 0.050159357 0.010288923 0.042963836 -0.034287542 -0.044380255 -0.08021135

hidden_bns.0.running_mean f4 [64]
00000000: cab6 813f 5741 623f 4d76 6a3f 484d 593f
00000010: 7b8c 193f 7e8b 333f dce4 453f bf24 373f
00000020: f0c9 2f3f d128 1e3f d87e 5d3f cae7 1a3f
00000030: fef1 4e3f 5686 293f 782f 833f 61d0 423f
00000040: 93f1 713f fc98 6a3f b7ba 653f 9b43 323f
00000050: e376 7b3f b8e2 3c3f 18ec 0e3f 3e6e 2c3f
00000060: 7e7e 173f 69ac 483f 5be4 563f 1971 323f
00000070: c3b4 1f3f ef47 6e3f b4eb 5d3f 5f36 583f
00000080: 2a86 453f 5e78 443f d2a1 763f e45a 523f
00000090: f21d 563f 9ff9 293f 524e 6c3f 25b7 203f
000000a0: 31b6 713f 483b 573f 4202 4b3f d47f f63e
000000b0: 1b2e 583f 12f9 2c3f 561e 683f 20f7 663f
000000c0: 2a2a 823f e918 453f 2b7d 5b3f f6f2 283f
000000d0: d75e 773f 20b3 373f 4e67 4a3f defd 3f3f
000000e0: 0398 263f 3f81 013f 9a1f 373f a89e 243f
000000f0: 389f 2a3f f56a 553f 0630 1a3f 755b 103f
1.0133908 0.8838095 0.9158676 0.84883547 0.5997998 0.70134723 0.77302337 0.71540445
0.6866751 0.6178103 0.86521673 0.6050993 0.80838 0.66220605 1.0248861 0.7609921
0.9450924 0.91639686 0.8973803 0.6963441 0.9822828 0.73783445 0.55829 0.67355716
0.59177387 0.7838808 0.8394219 0.69703823 0.62385195 0.9307851 0.8668778 0.84457964
0.77157843 0.76746166 0.9634067 0.8216994 0.8363944 0.66396517 0.9230701 0.62779456
0.9441863 0.8407483 0.7930032 0.481444 0.8444535 0.6756755 0.9067129 0.9022083
1.0169117 0.76991135 0.85737866 0.6599573 0.9662909 0.717577 0.7906388 0.74996746
0.650757 0.5058784 0.71532595 0.6430459 0.666492 0.8336633 0.6022953 0.5638955

hidden_bns.0.running_var f4 [64]
00000000: 1616 c03f 12fa c83f 5370 e23f 53f9 c23f
00000010: afc8 563f 222a a33f 4e78 da3f 9806 a03f
00000020: 5b7f 923f d51b 423f cb91 bb3f b9b3 4e3f
00000030: 9b0d b83f f02c 773f ece2 cc3f 5d13 cf3f
00000040: 552f aa3f 9b40 eb3f 72f5 b23f 5c9b ae3f
00000050: a2ac f83f df74 4a3f c00d 743f 0ed8 a63f
00000060: 573c 6b3f 8bc9 be3f 1463 a03f 33dd 953f
00000070: dfbf 453f bf14 c33f 50dd b33f c5b3 ac3f
00000080: 58f3 8c3f dc4d c43f aeea f33f f02d b23f
00000090: ab7d d63f 0377 733f 6b43 b23f 0f96 713f
000000a0: 9b91 c43f 4dd3 c73f 7fa6 be3f 64a5 f43e
000000b0: 389d a13f 970a 723f bd86 ab3f e19d 0740
000000c0: e1b2 c53f d321 ea3f 76f5 b13f cf22 a23f
000000d0: 30e0 a73f cb57 a63f a0e1 ac3f c47a a13f
000000e0: 85a1 4d3f 4c67 603f 53ad 983f d091 4b3f
000000f0: 0bfd 833f 3a57 bd3f 5f7c 3a3f 7b4d 613f
1.500674 1.5701315 1.7690529 1.5232338 0.8389997 1.2747233 1.7067964 1.2502012
1.1445116 0.7582372 1.4653867 0.80742985 1.4379152 0.96552944 1.6006751 1.6177784
1.3295695 1.8379091 1.3981154 1.3641162 1.9427683 0.7908458 0.9533348 1.3034685
0.91888946 1.4905256 1.2530236 1.170813 0.772459 1.5240706 1.4051914 1.3492361
1.1011763 1.5336261 1.9055994 1.3920269 1.6757101 0.9510347 1.3926824 0.94369596
1.5356935 1.5611359 1.489456 0.47782433 1.2626104 0.9454741 1.3400494 2.1190112
1.5445215 1.8291572 1.3903034 1.2666873 1.3115292 1.2995542 1.3506355 1.261559
0.80324584 0.8765762 1.1927894 0.7951937 1.0311598 1.4792244 0.72846025 0.8800885

hidden_bns.1.weight f4 [32]
00000000: dfbf 753f 1d21 543f 8252 833f 7c13 733f
00000010: f9aa 713f dc9e 783f f6fd 7f3f 36ad 5c3f
00000020: 5fb2 673f 0e0b 833f 1a61 763f 5bfc 7a3f
00000030: 9e2b 7d3f da5a 713f d82b 773f 239e 6f3f
00000040: 8b7d 7a3f 6eea 7f3f 275f 6f3f 7edd 2c3f
00000050: e8e4 703f d545 813f ed1b 6f3f 0091 863f
00000060: 38ab 6f3f 7439 6b3f 69bf 823f 788b 8b3f
00000070: 784d 873f 9700 753f 4796 753f fc6b 803f
0.959959 0.82863027 1.0259554 0.94951606 0.9440151 0.971174 0.9999689 0.862018
0.9050655 1.0237749 0.96241915 0.98041314 0.9889468 0.94279253 0.96551275 0.9360067
0.97847813 0.99967086 0.93504566 0.6752547 0.94099283 1.0099436 0.93401986 1.0513
0.93620634 0.9188454 1.0214664 1.0901937 1.0570517 0.95704025 0.9593243 1.0032954

hidden_bns.1.bias f4 [32]
00000000: 4c6f 883c b09b 353d cc08 c23d f1ac b33d
00000010: fed0 893d bad9 753d b8c6 1f3d c9eb dfbb
00000020: 33c0 cd3d d897 d1bc 9d01 6e3c 4110 c43d
00000030: 7b74 e23d 0fac 9e3d b5ff 713d 536c d5bb
00000040: 42ae e93d cde7 923d eab0 113e 18e3 eabc
00000050: 1a4c 993d 656f f23d 94d3 5e3d 0b50 09bd
00000060: 44e8 8f3d 4ff8 39bd a79d cc3d 6e32 b2bb
00000070: 6a0b a43c f271 31bd 46f0 323d 94be 9bbc
0.016654633 0.04433793 0.09474334 0.0877322 0.06729315 0.060022093 0.039007872 -0.0068335277
0.10046425 -0.0255851 0.014526752 0.09573413 0.11057373 0.07747661 0.05908175 -0.0065131574
0.1141019 0.07173119 0.14227644 -0.02867274 0.07485218 0.11837653 0.054400995 -0.0335236
0.07026723 -0.04540282 0.09991007 -0.0054381406 0.020024974 -0.043321557 0.043686174 -0.019011773

hidden_bns.1.running_mean f4 [32]
00000000: ec70 8f3f 6243 1d3f 221c 733f ae2c 6a3f
00000010: 8539 733f af7b 8e3f f7ab 923f 3625 563f
00000020: 55de 693f b830 653f 4e49 6e3f d73b 4f3f
00000030: b4d9 763f 55f3 683f 7b6e 473f b4e5 303f
00000040: 4a2e 693f bfcb 933f 680b ac3f 8861 0b3f
00000050: f2b3 863f 4ed3 3c3f 8539 183f a742 4a3f
00000060: 1344 9e3f 60ab 843f 4530 593f 1b45 753f
00000070: 4187 853f 62c9 6a3f c796 763f 1d79 613f
1.1206336 0.61430943 0.949648 0.91474426 0.9500964 1.1131495 1.145873 0.8365053
0.91354877 0.89527464 0.93080604 0.80950683 0.9642594 0.90996295 0.77902955 0.691005
0.91086257 1.1546553 1.3440981 0.54445696 1.0523665 0.73759925 0.5946277 0.79007953
1.2364525 1.03648 0.8483928 0.9580857 1.0431901 0.91713536 0.9632382 0.8807543

hidden_bns.1.running_var f4 [32]
00000000: 7521 1c40 824b 733f f276 a33f 1153 c33f
00000010: 288c c33f f5b4 2540 5caf 2c40 3b9d 703f
00000020: febd 953f 3c42 d73f 487a e93f e20d 703f
00000030: 9010 d13f f5ad b13f d869 8b3f 5c3d b93f
00000040: b488 a73f 6caa ca3f a041 1b40 a02e 4a3f
00000050: d12a 2840 9449 753f 745d 1e3f 3e0a b23f
00000060: 9b64 d43f 3668 1440 a4ea af3f 445d ce3f
00000070: e426 1d40 2932 d33f 7b52 fc3f 4717 ec3f
2.439542 0.9503709 1.2770674 1.5259725 1.5277147 2.5891697 2.698203 0.93989915
1.1698606 1.6817088 1.8240442 0.93771183 1.633318 1.3881212 1.0891676 1.447185
1.3088593 1.5833259 2.4258804 0.78977394 2.6276133 0.95815396 0.6186135 1.3909376
1.6593202 2.3188605 1.3743482 1.6122212 2.4554987 1.6499683 1.9712671 1.8444604

output_layer.weight f4 [2, 32]
00000000: bfff 9abe 4f47 323e f01e fbba aff5 dc3c
00000010: 4ef3 c33e 3894 63be d371 0bbe 4501 67be
00000020: 6156 6f3e 41b8 e0be 2378 89be 873d 5dbd
00000030: 8397 b63d 3882 833e b4c4 78bd 339e dcbc
00000040: ec55 373e 73fa 753e 01c4 bb3e 3b05 8d3e
00000050: e810 90be d480 923e 0bc7 963e 039e 03bf
00000060: 8298 273e f8cc 5dbe 99bf 893e 4a0b 62bc
00000070: d92b 0ebe aa80 eebd 9ff5 7abe e74d adbe
00000080: 5e1d bf3d d966 4f3e 91f3 adbe 89de a7be
00000090: 2d01 fa3d 437b 4c3e adc9 c33e 51e8 aabe
000000a0: df89 f0bd 9a9a 15be 3f79 103e 6143 d8be
000000b0: ec63 cebe 57bf 80bd f6d3 72be 55f5 653e
000000c0: 8bdd 3ebe 8575 5bbc c78e 82be 7f74 c43e
000000d0: 2efe 8b3e f452 073d 3af8 013e de2f 8ebe
000000e0: bbd0 83be ea63 7cbd a63d a2bd 4007 8b3e
000000f0: ed3e 683e 76cc 5b3c f3b3 2c3e 33bb 18bd
-0.30273244 0.17410015 -0.0019159 0.02697262 0.38271564 -0.2222451 -0.13617639 -0.22559078
0.23372795 -0.43890575 -0.2684947 -0.054013755 0.08915617 0.25685287 -0.060734466 -0.026930904
0.1790387 0.2402132 0.36672977 0.27543053 -0.28137898 0.28613913 0.29448733 -0.5141298
0.16366771 -0.2166022 0.2690399 -0.013796637 -0.13883914 -0.116456345 -0.2450776 -0.33848497
0.09331773 0.20254077 -0.3397489 -0.32786968 0.122072555 0.19968896 0.38239804 -0.33380368
-0.11745047 -0.14609757 0.14108752 -0.42238906 -0.4031061 -0.06286495 -0.23713669 0.22456868
-0.186392 -0.013394718 -0.25499555 0.3837013 0.2734236 0.033038095 0.12692347 -0.27770895
-0.25745186 -0.061618723 -0.07921915 0.2715397 0.22680254 0.0134154465 0.1686552 -0.037287902

output_layer.bias f4 [2]
00000000: 0ede 7c3d f8dd 7cbd
0.061735205 -0.061735123
